tsp/trained_models/trained_dtsp.pt (torch, 421006 bytes, 34 tensors)

v_init f4 [1, 64]
-1.391663 0.041470278 0.0108097745 -0.06036942 0.031575017 0.12869196 0.90010417 -0.17080478
0.98855746 -1.6141363 1.1800901 -0.09585376 0.0117338 -1.8384669 -0.53412855 -1.1983954
0.33773983 -0.20785452 -1.2181058 -0.42923126 0.4065229 -2.0117981 -0.74348116 0.08056864
-0.7871863 -1.3364207 0.23989706 -0.19508745 -1.8087534 1.1070403 -1.0520161 1.0126504
-0.27810842 1.0600138 -0.4088284 0.35303023 -0.19636081 0.24486494 0.21410783 0.26518142
0.41453314 -0.2101684 -1.126564 -0.13624907 -0.069809295 0.47719094 -0.004366025 -0.75090045
0.8325685 -0.051100682 -0.7048241 1.7298313 -0.16122049 -1.1049262 -0.8792735 0.33104855
0.61382264 0.05180815 -0.18880127 -0.39976522 -0.9871438 -0.905669 -0.75253844 1.0788537
00000000: 0322 b2bf bddc 293d 7b1b 313c ed45 77bd
00000010: ce54 013d d3c7 033e 3a6d 663f 73e7 2ebe
00000020: 1a12 7d3f 059c cebf 310d 973f fa4e c4bd
00000030: 203f 403c e252 ebbf a6bc 08bf 0565 99bf
00000040: 3cec ac3e d1d7 54be e4ea 9bbf 33c4 dbbe
00000050: c523 d03e 4dc1 00c0 c854 3ebf 2c01 a53d
00000060: 0b85 49bf d50f abbf 93a7 753e 01c5 47be
00000070: 3b85 e7bf 7fb3 8d3f 77a8 86bf 879e 813f
00000080: 3a64 8ebe 88ae 873f f551 d1be 61c0 b43e
00000090: cf12 49be e0bd 7a3e 153f 5b3e dcc5 873e
000000a0: b03d d43e 6336 57be 4033 90bf e084 0bbe
000000b0: 2df8 8ebd 5f52 f43e df10 8fbb 033b 40bf
000000c0: 3623 553f f34e 51bd 5a6f 34bf 1d6b dd3f
000000d0: fc16 25be 396e 8dbf 1118 61bf 327f a93e
000000e0: 7b23 1d3f c834 543d 1f55 41be 07ae ccbe
000000f0: 75b5 7cbf ecd9 67bf 5ca6 40bf e117 8a3f

init_mlp.0.weight f4 [8, 2]
0.34404773 0.66964984 -0.4153915 0.98591655 -0.48659834 -0.76368266 -0.2312063 0.842617
-0.5328282 0.3657377 0.6888874 -0.6666036 -0.85039485 0.22572987 -0.7184846 -0.6894814
00000000: 0627 b03e 2c6e 2b3f 32ae d4be 0765 7c3f
00000010: 6b23 f9be b580 43bf 58c1 6cbe bfb5 573f
00000020: 6e67 08bf f941 bb3e ed5a 303f 89a6 2abf
00000030: 7ab3 59bf bb25 673e 9bee 37bf da81 30bf

init_mlp.0.bias f4 [8]
0.0030767296 0.00967568 0.0 0.0125488965 0.050337747 -0.001395353 0.08683787 0.0
00000000: f5a2 493b be86 1e3c 0000 0000 e399 4d3c
00000010: f42e 4e3d 47e4 b6ba 0ed8 b13d 0000 0000

init_mlp.2.weight f4 [16, 8]
0.504927 -0.3407736 -0.15285183 -0.32909623 -0.1294644 0.5959467 -0.5714277 -0.31230295
-0.18845317 0.60375756 0.0077997455 0.3235092 0.21866815 0.42047054 0.61894596 0.20262028
0.4880909 0.5813581 -0.40611583 -0.7221627 -0.03262687 -0.046578627 -0.42573202 0.13023004
0.39558634 0.3303443 -0.23271778 -0.6929026 -0.688127 0.07799508 0.45765376 -0.081379265
0.6094059 -0.22372721 0.35989618 0.5363806 -0.6078116 -0.0055060117 -0.24463196 -0.23083362
0.6095279 0.6654763 0.34221017 -0.106046714 0.2722747 0.33100986 0.6518643 -0.252604
0.5924376 -0.45014405 -0.045764547 0.06992755 0.66963446 -0.25662506 0.8019731 0.31806514
0.5682985 0.28451025 0.4945156 0.18175474 0.29874256 -0.4380424 0.579832 0.23613456
-0.27458686 0.5535388 -0.031644523 0.4409786 -0.84389913 0.16764674 -0.22069824 0.4660338
0.12850976 -0.44403824 0.052586917 0.66509 -0.1849954 -0.41535723 -0.06701326 0.12262558
0.1592636 -0.44073197 0.0027123585 -0.11862564 0.4144649 0.33488515 -0.1833861 0.60449123
-0.1830904 -0.050861277 0.4411079 -0.20243618 -0.6051755 -0.2690184 0.34672824 -0.5709925
0.39524516 0.7559003 0.4912466 0.36873776 0.44584346 0.09771607 0.49486268 0.09451419
0.328885 0.22299874 -0.4349597 -0.0788563 0.7353874 -0.23934348 -0.061214916 -0.17055641
-0.05808094 -0.1697421 0.42112336 0.15357836 0.62817043 0.5605502 0.3374088 -0.08983598
-0.23558214 0.500802 -0.31173134 0.75481576 0.5174854 -0.31929922 0.47863278 -0.35792077
00000000: e542 013f e179 aebe 3185 1cbe 4d7f a8be
00000010: 5192 04be f78f 183f 1649 12bf 2ce6 9fbe
00000020: def9 40be db8f 1a3f 0295 ff3b ffa2 a53e
00000030: 8bea 5f3e ea47 d73e 3e73 1e3f b17b 4f3e
00000040: 0de7 f93e e2d3 143f 6aee cfbe a8df 38bf
00000050: c1a3 05bd 3bc9 3ebd 8cf9 d9be 065b 053e
00000060: 4b8a ca3e e322 a93e 924d 6ebe 1162 31bf
00000070: 1729 30bf e2bb 9f3d 9851 ea3e 2caa a6bd
00000080: 0602 1c3f bf18 65be 5044 b83e 3d50 093f
00000090: 8b99 1bbf c66b b4bb cd80 7abe a65f 6cbe
000000a0: 050a 1c3f a85c 2a3f 2c36 af3e 052f d9bd
000000b0: 9767 8b3e 207a a93e 94e0 263f 5055 81be
000000c0: fea9 173f 4879 e6be 9b73 3bbd 2d36 8f3d
000000d0: 2a6d 2b3f 5c64 83be 1c4e 4d3f 6fd9 a23e
000000e0: 037c 113f 54ab 913e 2631 fd3e ea1d 3a3e
000000f0: c9f4 983e 1847 e0be df6f 143f 42cd 713e
00000100: a696 8cbe b8b4 0d3f b09d 01bd f2c7 e13e
00000110: c609 58bf 96ab 2b3e b8fe 61be fb9b ee3e
00000120: 1098 033e fb58 e3be 6165 573d 5743 2a3f
00000130: 6f6f 3dbe b4a9 d4be 403e 89bd 1f23 fb3d
00000140: ff15 233e 9fa7 e1be d3c1 313b 00f2 f2bd
00000150: be34 d43e 1176 ab3e 91c9 3bbe f0bf 1a3f
00000160: 0d7c 3bbe ea53 50bd e5d8 e13e 6e4b 4fbe
00000170: c8ec 1abf c8bc 89be 5d86 b13e 912c 12bf
00000180: 935d ca3e af82 413f ad84 fb3e 32cb bc3e
00000190: 9845 e43e 5d1f c83d a45e fd3e a890 c13d
000001a0: 9d63 a83e c859 643e 0ab3 debe 697f a1bd
000001b0: 5942 3c3f 7516 75be 7ebc 7abd 57a6 2ebe
000001c0: 48e6 6dbd e0d0 2dbe 7b9d d73e a543 1d3e
000001d0: c7cf 203f 3880 0f3f d9c0 ac3e edfb b7bd
000001e0: 723c 71be 8f34 003f 409b 9fbe 9b3b 413f
000001f0: ec79 043f 307b a3be 5b0f f53e 6441 b7be

init_mlp.2.bias f4 [16]
-0.057860814 -0.050558455 0.00031354025 0.021055112 0.022342697 -0.037439257 -0.0003598854 0.009045388
-0.033572108 0.049788736 0.009215573 0.0 0.00062821223 0.0006414899 -0.022705527 0.026998082
00000000: 76ff 6cbd 6216 4fbd a962 a439 c57b ac3c
00000010: 0808 b73c e859 19bd 00af bcb9 1b33 143c
00000020: e882 09bd 46ef 4b3d eafc 163c 0000 0000
00000030: 9cae 243a a929 283a f100 babc 152b dd3c

init_mlp.4.weight f4 [32, 16]
-0.43003038 -0.018574247 0.16622894 0.18827088 -0.13397972 0.19683072 0.45145372 0.07201943
0.14269307 -0.3442333 -0.47069007 0.0025049048 0.20736213 0.00842744 -0.44389862 0.18209171
0.09502291 -0.10334069 -0.101663105 0.25744596 0.14432278 0.012484982 0.28416494 0.36619768
-0.19550997 0.14488725 -0.433003 -0.11100398 -0.45300913 -0.4024304 -0.049151793 -0.45492786
-0.12729338 0.0005295929 -0.49486303 -0.56307405 -0.53090286 0.23035565 0.31582558 -0.06383268
0.097189665 -0.13789903 0.26849422 0.22040804 -0.37055367 0.014897965 0.2934392 0.535274
0.45295998 0.139526 0.4692693 0.09452427 0.4399531 -0.3545244 0.13105963 0.18567313
0.14578193 0.17666587 0.045782488 0.23707828 -0.4200505 0.0644575 -0.059159134 0.32805598
-0.0045707924 -0.10266548 0.41721928 0.09315955 0.16553718 -0.07198194 -0.39420813 -0.50883955
-0.19239606 -0.15079366 -0.26756018 0.15399443 0.30322987 -0.31258178 0.51175565 -0.03704643
0.34235615 -0.09234611 0.49819237 -0.35347348 0.10428661 -0.052658338 -0.02627594 0.1284208
-0.057216853 -0.14692433 -0.15625454 -0.026707184 -0.37902436 0.34515107 0.11633974 -0.08792553
-0.018794045 0.23847112 0.22095782 -0.34186515 -0.37011042 0.09033036 -0.090929784 -0.3741624
0.34285763 -0.11682098 0.21468559 -0.32700783 -0.15190414 0.24131063 -0.2706035 0.19609274
0.020391561 -0.5291233 -0.25644764 -0.41654363 0.5041965 0.3330384 0.05276665 0.24568868
-0.1491716 0.3760289 0.35673925 -0.29902303 -0.07453568 0.15691864 -0.13062471 -0.4281476
0.31948292 0.434073 0.43991914 -0.101046465 -0.36840034 -0.39788693 0.38167617 -0.2710512
-0.21001185 0.30314085 0.19545957 0.39342183 -0.387456 0.28863698 -0.3036121 -0.18724649
0.2983087 -0.035666812 -0.09708273 0.33566168 -0.39934665 -0.39312273 0.1712659 0.13929296
-0.25021094 -0.3905412 0.083590984 -0.30602956 -0.40602347 0.4392494 0.1310289 -0.36322182
0.42174277 -0.10489789 0.45136344 -0.26042548 -0.0067942613 0.098095514 0.1632391 0.2563306
0.3869899 -0.017576475 -0.45450133 0.432483 0.19543473 0.38378918 -0.018518444 0.5332507
-0.46095458 0.47267705 -0.44262937 0.035976857 0.491547 0.021464666 -0.25436792 0.09706726
-0.34066468 -0.1711211 0.052608524 -0.13765578 0.2048568 0.4218496 -0.05026432 0.36350822
-0.0062895003 0.5446713 -0.45802963 -0.050760385 0.16344853 0.40517443 0.2949531 -0.01258124
0.32586715 -0.28973866 0.21183112 -0.114689104 -0.133489 0.42540812 0.25437754 -0.17572151
-0.30562147 0.06532975 -0.2318308 0.20896259 0.47169775 0.29457098 0.29631808 -0.4142145
-0.13332655 0.36592814 -0.3387452 0.23096494 -0.16761638 -0.36881432 -0.111059524 -0.28952095
0.33385256 -0.19733012 -0.36347404 -0.41507035 -0.18931547 0.1877906 0.30288038 0.1729299
-0.17282453 0.41103923 -0.081902504 -0.103788644 0.18404648 0.19450727 0.38859853 0.5336882
0.38123694 0.13396823 0.26883772 -0.064685486 -0.38831475 0.10821929 -0.11575719 -0.20678815
-0.1903466 0.066838644 -0.45778185 -0.17894018 -0.23472244 -0.23530453 -0.074633844 0.16910589
00000000: f12c dcbe 0529 98bc eb37 2a3e 15ca 403e
00000010: fb31 09be fe8d 493e f124 e73e ec7e 933d
00000020: 221e 123e 593f b0be 4afe f0be 5429 243b
00000030: bd56 543e 3f13 0a3c ae46 e3be 4076 3a3e
00000040: 5f9b c23d 49a4 d3bd bf34 d0bd f5cf 833e
00000050: 5ac9 133e cf8d 4c3c 117e 913e 437e bb3e
00000060: c433 48be 535d 143e 92b2 ddbe 0e56 e3bd
00000070: d0f0 e7be 5b0b cebe 6453 49bd 4eec e8be
00000080: 3259 02be 61d4 0a3a b05e fdbe 9f25 10bf
00000090: 40e9 07bf 5ae2 6b3e e4b3 a13e b5ba 82bd
000000a0: 600b c73d 6735 0dbe 1378 893e a5b2 613e
000000b0: 36b9 bdbe 9816 743c aa3d 963e b807 093f
000000c0: 5fea e73e e7df 0e3e 1144 f03e f195 c13d
000000d0: 8841 e13e 3984 b5be 7f34 063e 1921 3e3e
000000e0: dc47 153e e6e7 343e 6b86 3b3d a6c4 723e
000000f0: dc10 d7be 4b02 843d d950 72bd f4f6 a73e
00000100: 96c6 95bb 4742 d2bd c49d d53e 6fca be3d
00000110: 9482 293e 446b 93bd a6d5 c9be 4f43 02bf
00000120: 7903 45be a769 1abe a6fd 88be b7b0 1d3e
00000130: f240 9b3e b80a a0be 6b02 033f ffbd 17bd
00000140: 4e49 af3e f51f bdbd 1213 ff3e 7afa b4be
00000150: 3894 d53d 45b0 57bd a440 d7bc be80 033e
00000160: 385c 6abd 5573 16be 3101 20be 06c9 dabc
00000170: 7b0f c2be a4b7 b03e 8843 ee3d 4d12 b4bd
00000180: f8f5 99bc c631 743e c442 623e f308 afbe
00000190: 1d7f bdbe 20ff b83d 6539 babd 3792 bfbe
000001a0: 098b af3e d73f efbd 8ad6 5b3e 926d a7be
000001b0: c28c 1bbe 221a 773e 8b8c 8abe 89cc 483e
000001c0: 340c a73c a074 07bf 1b4d 83be 3545 d5be
000001d0: 0613 013f 0284 aa3e d821 583d d095 7b3e
000001e0: 71c0 18be dc86 c03e 87a6 b63e 8c19 99be
000001f0: 2aa6 98bd 48af 203e 7cc2 05be 2a36 dbbe
00000200: 4493 a33e d13e de3e 153d e13e 73f1 cebd
00000210: f89e bcbe d6b7 cbbe 0f6b c33e 39c7 8abe
00000220: 590d 57be 4735 9b3e 8e26 483e 966e c93e
00000230: a260 c6be 3ac8 933e 0c73 9bbe 8bbd 3fbe
00000240: ebbb 983e 5d17 12bd 4fd3 c6bd d9db ab3e
00000250: 2a77 ccbe 6247 c9be 5460 2f3e d0a2 0e3e
00000260: a61b 80be 04f5 c7be c031 ab3d e8af 9cbe
00000270: 4fe2 cfbe 4ce5 e03e 712c 063e 36f8 b9be
00000280: abee d73e b4d4 d6bd 1c19 e73e 7d56 85be
00000290: 65a2 debb 4de6 c83d 2728 273e c43d 833e
000002a0: 8a23 c63e 8afc 8fbc 66b4 e8be 696e dd3e
000002b0: 0b20 483e 0480 c43e feb3 97bc 1e83 083f
000002c0: 3d02 ecbe ba02 f23e 51a0 e2be 785c 133d
000002d0: 0cac fb3e abd6 af3c 833c 82be 33cb c63d
000002e0: 9a6b aebe 5f3a 2fbe 097c 573d a3f5 0cbe
000002f0: fbc5 513e acfc d73e f6e1 4dbd c01d ba3e
00000300: 2718 cebb 946f 0b3f dc82 eabe 1fea 4fbd
00000310: 0d5f 273e 0673 cf3e 1804 973e 8c21 4ebc
00000320: 0fd8 a63e a058 94be 42ea 583e 1fe2 eabd
00000330: 57b1 08be 18cf d93e c63d 823e 57f0 33be
00000340: 6b7a 9cbe 9bcb 853d 0e65 6dbe 4afa 553e
00000350: 5e82 f13e 02d2 963e 01b7 973e ec13 d4be
00000360: c186 08be ef5a bb3e 0370 adbe 1382 6c3e
00000370: a1a3 2bbe 3bd5 bcbe 2d73 e3bd 173c 94be
00000380: b9ee aa3e e810 4abe 4519 babe 1a84 d4be
00000390: eadb 41be 2e4c 403e 2313 9b3e 8914 313e
000003a0: eaf8 30be bc73 d23e 80bc a7bd 248f d4bd
000003b0: ae76 3c3e ea2c 473e 63f6 c63e ca9f 083f
000003c0: 7d31 c33e f82e 093e 19a5 893e d379 84bd
000003d0: 31d1 c6be 13a2 dd3d 1b12 edbd 46c0 53be
000003e0: 38ea 42be b3e2 883d 6262 eabe 183c 37be
000003f0: 145b 70be acf3 70be a1d9 98bd 182a 2d3e

init_mlp.4.bias f4 [32]
0.039686847 -0.014359672 -0.012044474 -0.009338787 -0.0013681144 -0.012249111 -0.016970819 0.031489797
0.0 0.0 -0.015983593 0.002518119 -0.032257915 0.00063282385 -0.046632983 -0.0051399358
0.012577244 0.014759384 -0.023477005 0.007112421 0.0 0.009840738 0.027430698 0.03077288
0.0 -0.0059782118 -0.010568424 0.0 0.023542771 0.017757954 0.024460288 -0.028305784
00000000: ad8e 223d d444 6bbc 2f56 45bc b601 19bc
00000010: 4d52 b3ba 7fb0 48bc 6306 8bbc 72fb 003d
00000020: 0000 0000 0000 0000 06f0 82bc 0707 253b
00000030: e020 04bd 17e4 253a 3a02 3fbd e86c a8bb
00000040: c910 4e3c 58d1 713c d952 c0bc 500f e93b
00000050: 0000 0000 0c3b 213c 58b6 e03c 6817 fc3c
00000060: 0000 0000 e0e4 c3bb 2f27 2dbc 0000 0000
00000070: c5dc c03c 2179 913c f160 c83c 88e1 e7bc

init_mlp.6.weight f4 [64, 32]
0.19237912 -0.17735629 -0.15547502 0.04855167 0.12352181 0.0003127077 0.104379095 0.05768875
-0.113029845 0.048141804 0.16946037 -0.2672089 -0.28738415 0.24004257 0.30030656 0.11122178
-0.41851804 0.06935843 -0.123328574 0.0041338564 -0.09654715 -0.28281963 0.24094813 -0.36425063
0.050225638 -0.048337642 0.27136108 -0.09908784 0.19050562 0.26416066 -0.17403114 0.27024633
0.34711748 0.013995647 -0.009459867 0.018761067 -0.28183502 0.277246 0.21975939 -0.027438123
0.1735938 -0.06177343 0.041927613 0.2749736 -0.36142692 0.30988148 0.34895048 0.31074846
-0.047112 -0.2239119 -0.25036398 -0.1730964 0.1828418 -0.01670925 0.061442707 0.03765865
-0.24777305 -0.0294787 -0.050164696 -0.058425616 0.35367662 0.024000457 0.21862675 -0.24435833
-0.19519015 -0.114710696 -0.5141121 -0.047026407 -0.19499469 -0.21710527 0.09308384 0.23800778
-0.12347455 -0.10488037 -0.32927433 0.23047855 -0.0041165887 0.1943287 -0.2410942 -0.23632807
-0.4358379 0.012529966 -0.27056342 0.060760573 0.22056434 -0.029646352 0.17760926 0.22302915
0.2619725 -0.21743587 0.3073131 0.20010266 0.06682187 0.23257867 -0.23898748 -0.21501881
-0.12700008 0.14044888 0.20269097 0.29895177 0.32315215 0.0422613 -0.29819804 -0.10841475
-0.3123114 0.23163316 -0.17279068 -0.39456972 -0.27966642 0.21152769 -0.3375347 -0.21303596
-0.45059514 0.34420297 0.27420208 -0.11677158 -0.25286996 0.07057494 -0.0100186365 -0.35625008
-0.25863397 0.038895383 0.22246757 -0.29247576 0.1152685 -0.17432654 -0.2644302 0.03351996
-0.17941989 0.019862471 -0.11956522 -0.3405103 0.14154965 -0.36859703 -0.015297116 0.21646349
-0.06451154 0.2995801 0.18636426 0.34249717 -0.19131833 0.3652921 -0.19587271 -0.32533118
0.19709536 -0.10101112 -0.19253005 -0.35778153 0.03509973 -0.45494887 -0.30785054 0.026183277
0.23533846 0.28068188 -0.2822829 -0.02363895 -0.13349679 -0.11565964 0.16563815 -0.110796794
0.19070056 0.05956361 0.070939064 -0.03161531 -0.09932264 0.06860481 0.07259823 -0.21513203
0.047696862 -0.14038727 0.3108523 -0.11735859 -0.33192053 -0.070573375 0.3749507 0.23199448
0.46335515 0.1717465 -0.27417913 -0.1463927 -0.10300251 0.49847165 -0.39539155 0.42410097
0.23088995 -0.14464441 0.18481249 0.09850665 0.244953 -0.029141447 0.36167064 -0.0674419
-0.23666792 0.21805003 -0.034179185 0.08449823 -0.17749135 -0.07167156 -0.14942764 -0.031144405
0.31409562 -0.086140916 0.0036596395 -0.1498696 0.34620643 -0.022989944 0.36620146 -0.15931071
-0.27695152 -0.2295687 -0.2310919 -0.25501692 -0.16974932 0.2439974 -0.010660507 -0.11408739
-0.17079301 0.13063854 -0.11561891 0.076116644 -0.3703738 -0.04948847 -0.2772618 0.08691081
0.0892905 0.15651703 -0.042764563 -0.38559932 -0.042462125 -0.37205744 0.15870146 -0.17321579
0.27925053 0.061529703 0.15888831 0.024253944 0.24804363 -0.2902779 -0.27477464 -0.19644713
0.26859972 -0.20153272 0.314442 0.28941157 0.1536594 -0.13944544 0.25008878 -0.07965203
-0.12551212 0.13660118 -0.025318278 0.26923403 0.14710641 0.07758643 -0.15411691 -0.032087054
00000000: 08ff 443e e39c 35be d834 1fbe 1ede 463d
00000010: 01f9 fc3d ebf2 a339 b5c4 d53d 0a4b 6c3d
00000020: 317c e7bd 5730 453d 0587 2d3e 9bcf 88be
00000030: 0424 93be b8cd 753e c8c1 993e 3fc8 e33d
00000040: ff47 d6be cb0b 8e3d b193 fcbd 4d75 873b
00000050: 83ba c5bd bccd 90be 1bbb 763e 0f7f babe
00000060: 66b9 4d3d b1fd 45bd d7ef 8a3e 91ee cabd
00000070: e813 433e 1140 873e 3835 32be ba5d 8a3e
00000080: 62b9 b13e 004e 653c 8ffd 1abc cfb0 993c
00000090: ae4c 90be 30f3 8d3e 9b08 613e eac5 e0bc
000000a0: 93c2 313e 2306 7dbd 4abc 2b3d 57c9 8c3e
000000b0: f30c b9be c9a8 9e3e a3a9 b23e 6c1a 9f3e
000000c0: 83f8 40bd 2949 65be b52f 80be 2f40 31be
000000d0: e13a 3b3e d6e1 88bc 59ab 7b3d f53f 1a3d
000000e0: 38b8 7dbe 517d f1bc 7f79 4dbd b34f 6fbd
000000f0: 1a15 b53e 9b9c c43c b1df 5f3e 1239 7abe
00000100: eddf 47be 71ed eabd da9c 03bf c39e 40bd
00000110: b0ac 47be d850 5ebe bea2 be3d 50b8 733e
00000120: 3ae0 fcbd 85cb d6bd a596 a8be 9202 6c3e
00000130: 73e4 86bb 1afe 463e 66e1 76be fcff 71be
00000140: 2526 dfbe 7d4a 4d3c 4a87 8abe 14e0 783d
00000150: 9edb 613e e8dc f2bc 34df 353e c161 643e
00000160: 4221 863e 82a7 5ebe 2558 9d3e b6e7 4c3e
00000170: e8d9 883d 1a29 6e3e 22b9 74be e42d 5cbe
00000180: 4f0c 02be d5d1 0f3e 398e 4f3e 3510 993e
00000190: 3374 a53e 2f1a 2d3d 6aad 98be 8d08 debd
000001a0: 48e7 9fbe 3e31 6d3e 0af0 30be 0b05 cabe
000001b0: 7030 8fbe b79a 583e 59d1 acbe 1926 5abe
000001c0: 68b4 e6be 5f3b b03e 3764 8c3e f025 efbd
000001d0: 2c78 81be 9889 903d 3525 24bc 6966 b6be
000001e0: ac6b 84be c450 1f3d 8ace 633e 62bf 95be
000001f0: e411 ec3d a882 32be 6563 87be 3a4c 093d
00000200: d9b9 37be 9fb6 a23c 9cde f4bd 5e57 aebe
00000210: 64f2 103e c0b8 bcbe c1a0 7abc 9ba8 5d3e
00000220: a01e 84bd 9062 993e 46d6 3e3e ca5b af3e
00000230: f4e8 43be 9107 bb3e db92 48be cf91 a6be
00000240: 5ed3 493e ebde cebd 9926 45be 242f b7be
00000250: bcc4 0f3d 0fef e8be 969e 9dbe 507e d63c
00000260: 91fc 703e 89b5 8f3e 6287 90be 79a6 c1bc
00000270: 62b3 08be f6de ecbd 0c9d 293e 6ee9 e2bd
00000280: 0247 433e f9f8 733d 8048 913d 0e7f 01bd
00000290: ab69 cbbd ae80 8c3d 61ae 943d 924b 5cbe
000002a0: c95d 433d aec1 0fbe 0828 9f3e b359 f0bd
000002b0: 7df1 a9be c688 90bd 8af9 bf3e f68f 6d3e
000002c0: e33c ed3e 51de 2f3e 3561 8cbe f8e7 15be
000002d0: fbf2 d2bd ad37 ff3e c370 cabe c323 d93e
000002e0: 6a6e 6c3e aa1d 14be 7c3f 3d3e dbbd c93d
000002f0: f6d4 7a3e 0bba eebc e52c b93e fb1e 8abd
00000300: 1359 72be 8248 5f3e 79ff 0bbd 680d ad3d
00000310: 4bc0 35be 8ac8 92bd 8f03 19be 8d22 ffbc
00000320: 24d1 a03e a66a b0bd 90d6 6f3b 6b77 19be
00000330: f841 b13e 6855 bcbc c27e bb3e 5922 23be
00000340: 97cc 8dbe 0f14 6bbe 5ba3 6cbe 9491 82be
00000350: c4d2 2dbe 74da 793e 68a9 2ebc a6a6 e9bd
00000360: 5de4 2ebe 1cc6 053e 9bc9 ecbd 0be3 9b3d
00000370: a2a1 bdbe 6cb4 4abd 42f5 8dbe 4bfe b13d
00000380: f0dd b63d 0046 203e e529 2fbd 466d c5be
00000390: c4ec 2dbd 507e bebe a382 223e 7b5f 31be
000003a0: edf9 8e3e 9206 7c3d 9eb3 223e 35b0 c63c
000003b0: 26ff 7d3e 4e9f 94be 43af 8cbe 7029 49be
000003c0: e785 893e 985e 4ebe 8bfe a03e c12d 943e
000003d0: e458 1d3e c9ca 0ebe a30b 803e 9a20 a3bd
000003e0: 4086 00be 2ee1 0b3e 4768 cfbc 0bd9 893e
000003f0: 10a3 163e a2e5 9e3d d3d0 1dbe b76d 03bd

init_mlp.6.bias f4 [64]
0.024733357 0.009544628 0.0069182226 -0.0009044215 0.01284138 -0.019682797 0.012759559 0.0072753206
-0.06269961 0.0007142827 0.0013207608 -0.0077298316 -0.0038668734 -0.024182647 -0.016273813 0.004033322
0.02480854 0.031850383 -0.016330527 0.010962377 -0.0027026248 -0.01038988 -0.015712481 0.0050432524
-0.026314043 -0.016152669 0.03696134 -0.0026969414 0.0043295226 -0.0034375344 -0.0056437426 -0.01942584
0.0032950838 -0.023876378 -0.017379178 0.00819023 0.014905039 -0.008241353 -0.010647326 -0.037817273
0.010317813 0.0058511402 -0.026751049 0.0056581125 -0.0068829386 -0.021586891 -0.0077254586 0.015410653
-0.03204969 0.00760208 0.042331193 -0.029006511 -0.01863677 -0.01789225 -0.0023567714 -0.0038221579
0.0071734292 -0.024760801 0.004234958 -0.0017639411 -0.01894522 0.0022594954 0.014818324 -0.013226638
00000000: 9c9d ca3c 1261 1c3c 42b2 e23b b316 6dba
00000010: a764 523c d13d a1bc 780d 513c d065 ee3b
00000020: a768 80bd b33e 3b3a 611d ad3a 874a fdbb
00000030: 5f6b 7dbb b01a c6bc a950 85bc f529 843b
00000040: 473b cb3c 8c75 023d 99c7 85bc 8b9b 333c
00000050: 851e 31bb 513a 2abc 76b7 80bc de41 a53b
00000060: 8c90 d7bc 9a52 84bc c664 173d 2bbf 30bb
00000070: abde 8d3b 4248 61bb 25ef b8bb f022 9fbc
00000080: 55f2 573b 6598 c3bc c75e 8ebc 5030 063c
00000090: 4434 743c bd06 07bc 1f72 2ebc 49e6 1abd
000000a0: 0b0c 293c ecba bf3b 0425 dbbc b067 b93b
000000b0: 468a e1bb fed6 b0bc d825 fdbb f77c 7c3c
000000c0: 8946 03bd de1a f93b 7963 2d3d 109f edbc
000000d0: 24ac 98bc c592 92bc 1074 1abb 2b7d 7abb
000000e0: 160f eb3b 2ad7 cabc 67c5 8a3b 0b34 e7ba
000000f0: 0233 9bbc 0b14 143b 8ec8 723c 8ab4 58bc

edge_message_mlp.0.weight f4 [64, 64]
-0.2489534 -0.29321986 0.20747384 0.034704853 -0.237494 -0.2607311 -0.15172398 -0.16540739
0.124649175 0.093625166 0.004726159 0.12010981 -0.021134093 0.19413002 0.22708029 0.13616066
0.17690778 -0.06774378 0.2765987 0.0731929 -0.0859364 -0.03907005 0.09340109 0.08182801
0.06267674 0.24455634 0.008182827 0.056053124 -0.16626029 0.25308806 0.29762274 -0.023781823
-0.08154158 -0.3174642 -0.26545963 -0.17415957 0.130186 -0.10557649 0.25425118 -0.16893356
-0.2594701 -0.17827258 0.15402663 -0.21127021 0.12532708 -0.114291735 0.2366412 -0.030224906
0.16784357 0.117044196 -0.054373957 0.19614242 -0.19651899 0.03856943 -0.3183319 -0.16393931
0.21280685 0.13200097 -0.24353203 0.16568197 0.30480522 -0.08743711 0.08894115 -0.20905155
0.18789412 0.14411779 0.15141886 -0.15451583 0.27491525 0.26621568 -0.07718185 0.1123343
-0.07859676 -0.024446724 0.031761058 -0.09486624 0.26681677 0.15989406 -0.07637422 -0.19392404
0.14496306 0.31119195 0.20009856 0.036755603 -0.08864689 0.07679734 0.3298495 -0.09594446
-0.055345867 0.25628296 -0.21386309 0.08353552 0.1795164 0.15336192 -0.23856099 -0.028088074
0.20787731 -0.07610646 0.2195796 -0.15421127 0.25854304 0.14884786 0.29026243 0.0072090514
-0.22768803 0.3492978 -0.20470169 -0.19448072 -0.007868447 0.3134183 0.043493398 0.12906407
0.23369518 0.31513017 0.27049935 0.28969738 -0.12733151 0.077917 0.09283484 -0.27404398
-0.017311169 -0.18843837 -0.00168493 0.053787094 0.2627732 -0.1112042 0.030706763 -0.21214974
-0.10437864 0.12164899 -0.1879335 -0.2258043 0.24348538 0.012336784 -0.028769013 -0.19288568
0.22064182 -0.23029278 -0.11932337 0.12093244 -0.22886683 -0.14874363 -0.024674458 0.09694169
-0.16276471 0.10461166 -0.15782478 -0.28963816 -0.009360417 0.100214146 -0.21789728 -0.21800931
-0.05306778 0.23811279 -0.19339535 0.2152336 -0.017418448 0.032360334 0.10114728 -0.3222996
-0.20624077 -0.10179216 0.22175975 -0.09544734 -0.3142616 -0.22394723 -0.25591177 -0.10121316
-0.28818893 0.058421444 -0.25669605 0.08810149 -0.2343013 -0.010985505 -0.21493375 0.04009032
0.033882838 -0.27251232 0.10784057 0.17606138 -0.18563876 -0.07283651 0.06358108 0.21537672
-0.13560073 -0.16524227 0.058439445 -0.1294721 0.09383125 0.09774622 -0.25539246 -0.20434526
-0.008658306 0.2750748 0.08619593 -0.24079183 0.19075295 -0.23610078 0.2579671 0.2858044
-0.20199278 0.13706496 -0.06751997 0.03195044 0.25833872 -0.15083648 -0.19877031 -0.13023269
0.066261515 -0.22323725 0.20041798 -0.26685697 0.016405089 -0.014779345 0.15641868 0.22461434
0.122816876 -0.26241595 0.09864667 0.087180115 -0.028215325 0.18358073 -0.29426542 0.055133235
0.11464947 -0.03121466 0.24263845 -0.25057778 -0.17559703 0.24422354 -0.23514166 -0.2350649
-0.124093875 0.29132497 -0.12608795 0.16752246 -0.015552737 -0.2977629 0.116552226 -0.23759745
-0.14684914 0.08616887 -0.098032966 -0.17123266 -0.16552089 0.09209318 0.06437935 -0.07998868
-0.097328156 -0.02098974 -0.26890126 0.3015533 -0.029742738 0.1949519 0.1743124 -0.28638774
00000000: a4ed 7ebe ea20 96be 0674 543e ad26 0e3d
00000010: a131 73be 8c7e 85be 885d 1bbe 8e60 29be
00000020: 1148 ff3d 8dbe bf3d e5dd 9a3b 22fc f53d
00000030: 6821 adbc 05ca 463e bc87 683e b36d 0b3e
00000040: 5027 353e 40bd 8abd 589e 8d3e 29e6 953d
00000050: 6cff afbd eb07 20bd 1249 bf3d 7295 a73d
00000060: aa5c 803d fa6c 7a3e 4411 063c f697 653d
00000070: 2340 2abe c294 813e 0262 983e 19d2 c2bc
00000080: 46ff a6bd ab8a a2be 53ea 87be e356 32be
00000090: 7b4f 053e 7d38 d8bd 362d 823e ebfc 2cbe
000000a0: 44d9 84be 168d 36be 28b9 1d3e 3857 58be
000000b0: be55 003e c911 eabd 1252 723e 399a f7bc
000000c0: 2fdf 2b3e deb4 ef3d 3ab7 5ebd 8fd9 483e
000000d0: 463c 49be fbfa 1d3d 66fc a2be b5df 27be
000000e0: 0aea 593e 432b 073e 7660 79be 89a8 293e
000000f0: 6e0f 9c3e 3a12 b3bd c726 b63d 9c11 56be
00000100: 5167 403e 9d93 133e 8c0d 1b3e 6639 1ebe
00000110: b1c1 8c3e 6c4d 883e 8511 9ebd 870f e63d
00000120: 57f7 a0bd 7f44 c8bc e217 023d 3b49 c2bd
00000130: 359c 883e 45bb 233e 166a 9cbd 0694 46be
00000140: 3271 143e 8d54 9f3e a3e6 4c3e 0b8d 163d
00000150: 808c b5bd ec47 9d3d 09e2 a83e 877e c4bd
00000160: 59b2 62bd 8537 833e edfe 5abe ac14 ab3d
00000170: 26d3 373e e80a 1d3e 5549 74be f618 e6bc
00000180: cadd 543e b4dd 9bbd 7ad9 603e 8fe9 1dbe
00000190: c15f 843e 936b 183e 479d 943e e839 ec3b
000001a0: 0d27 69be 29d7 b23e 529d 51be f425 47be
000001b0: a9ea 00bc 5d78 a03e 2226 323d 5f29 043e
000001c0: ca4d 6f3e be58 a13e e47e 8a3e 3753 943e
000001d0: 3163 02be f392 9f3d 3120 be3d 7e4f 8cbe
000001e0: 27d0 8dbc fdf5 40be ded8 dcba db4f 5c3d
000001f0: 358a 863e 07bf e3bd c08c fb3c c83d 59be
00000200: 78c4 d5bd 1b23 f93d a471 40be 3e39 67be
00000210: 3b54 793e 3920 4a3c feac ebbc d383 45be
00000220: eeef 613e dfd1 6bbe d05f f4bd 6dab f73d
00000230: 115c 6abe 4050 18be 1722 cabc 5d89 c63d
00000240: cbab 26be a33e d63d d29c 21be 744b 94be
00000250: 6f5c 19bc 133d cd3d 7720 5fbe d53d 5fbe
00000260: 9a5d 59bd d7d3 733e 6e09 46be 3266 5c3e
00000270: 22b1 8ebc 458c 043d 4e26 cf3d 7404 a5be
00000280: c830 53be 6878 d0bd fd14 633e e579 c3bd
00000290: e5e6 a0be 6c52 65be de06 83be d848 cfbd
000002a0: 808d 93be 534b 6f3d aa6d 83be 8e6e b43d
000002b0: aeec 6fbe 8cfc 33bc 9817 5cbe bf35 243d
000002c0: bbc8 0a3d bc86 8bbe 84db dc3d 6f49 343e
000002d0: 1618 3ebe 4f2b 95bd cc36 823d b78b 5c3e
000002e0: ebda 0abe 4535 29be 335e 6f3d 5694 04be
000002f0: 992a c03d 2c2f c83d cdc2 82be e23f 51be
00000300: 91db 0dbc 9bd6 8c3e 7e87 b03d 2292 76be
00000310: be54 433e 67c4 71be 4414 843e f454 923e
00000320: 32d7 4ebe c25a 0c3e e947 8abd 77de 023d
00000330: f944 843e e174 1abe 728a 4bbe b85b 05be
00000340: 1eb4 873d 4e98 64be 5f3a 4d3e 7aa1 88be
00000350: f763 863c 1125 72bc 382c 203e 4d01 663e
00000360: 6a87 fb3d 625b 86be 4407 ca3d 7d8b b23d
00000370: d323 e7bc 96fc 3b3e f5a9 96be 63d3 613d
00000380: 57cd ea3d e3b5 ffbc 3776 783e bb4b 80be
00000390: b5cf 33be bc15 7a3e fac8 70be dab4 70be
000003a0: ee24 febd 8c28 953e 331d 01be 028b 2b3e
000003b0: e8d0 7ebc 6174 98be efb2 ee3d bf4c 73be
000003c0: 9f5f 16be 4e79 b03d 82c5 c8bd 9d57 2fbe
000003d0: 4f7e 29be 599b bc3d 52d9 833d 1bd1 a3bd
000003e0: fc53 c7bd adf2 abbc 6dad 89be 3265 9a3e
000003f0: 0ba7 f3bc 79a1 473e f37e 323e 6aa1 92be

edge_message_mlp.0.bias f4 [64]
-0.0075065815 -0.02203428 0.0025037967 -0.04115089 -0.0025592246 -0.03644206 0.0040134736 -0.012807475
-0.0047032055 -0.0022706967 0.0024422489 -0.010263057 -0.015163662 0.014716289 -0.007865336 -0.047067232
0.022295516 -0.033006545 -0.04278085 -0.052337777 -0.042571466 -0.019071676 -0.0065017287 -0.057800986
-0.005425679 -0.044515744 0.011148753 -0.014315496 -0.05574835 -0.031050067 -0.017098611 -0.0319392
0.019117711 0.009145017 -0.03389493 -0.02275062 -0.04444481 0.00030678278 -0.02543163 -0.00019619938
-0.023093002 -0.010535944 -0.032670673 -0.012623324 -0.020657877 -0.04351672 -0.012087304 0.0061248434
0.014639928 0.007071228 0.0040652785 -0.0028048079 0.0052489084 0.006716657 -0.0234485 0.0020817986
0.00866863 -0.06413114 -0.028251207 0.026716283 -0.03574223 -0.016068779 -0.030688304 -0.03490922
00000000: c5f9 f5bb 3c81 b4bc bd16 243b d68d 28bd
00000010: aab8 27bb 4544 15bd 7583 833b 72d6 51bc
00000020: 591d 9abb f8cf 14bb 230e 203b 6226 28bc
00000030: 0271 78bc 971c 713c 9cdd 00bc 92c9 40bd
00000040: 16a5 b63c df31 07bd f93a 2fbd 2360 56bd
00000050: 6b5f 2ebd 343c 9cbc 740c d5bb bac0 6cbd
00000060: e5c9 b1bb 2456 36bd 42a9 363c 8b8b 6abc
00000070: 6258 64bd b65c febc 6312 8cbc aed2 02bd
00000080: bf9c 9c3c fbd4 153c 69d5 0abd 825f babc
00000090: c30b 36bd b0d7 a039 fe55 d0bc dfba 4db9
000000a0: 892d bdbc f49e 2cbc afd1 05bd 0fd2 4ebc
000000b0: b53a a9bc 973e 32bd d409 46bc e9b2 c83b
000000c0: 4fdc 6f3c c3b5 e73b 0736 853b ded0 37bb
000000d0: 09ff ab3b 6717 dc3b 1217 c0bc c96e 083b
000000e0: df06 0e3c 3057 83bd 136f e7bc 1bdc da3c
000000f0: 7266 12bd aca2 83bc 0a66 fbbc f8fc 0ebd

edge_message_mlp.2.weight f4 [64, 64]
-0.21523374 -0.07622145 0.04449109 -0.28627643 0.26789087 -0.10014003 -0.035746012 -0.16390483
-0.079504676 0.005647468 0.031043626 -0.21014372 0.20552912 0.15051717 -0.15322067 0.26068333
-0.19021179 -0.16714112 0.23952098 -0.1099616 -0.28017986 -0.13895191 -0.16083778 0.40894976
-0.050739575 -0.23408565 -0.21611105 0.2776024 0.11910469 -0.14599408 -0.22913241 0.037554577
-0.30457842 0.24332264 0.3170016 0.20026587 0.31778336 -0.100766204 -0.080822915 -0.11342284
0.13795215 -0.010147416 -0.13741794 -0.2286769 -0.1481903 0.19078249 0.12943505 -0.24414551
0.014034065 0.039155643 -0.00050720526 0.26120573 0.13556583 0.26788872 0.061920464 0.18007025
0.11362979 0.37585142 -0.35535595 -0.25022808 0.08076177 0.24355578 -0.17716043 0.24002142
0.2871538 -0.060691528 -0.099050194 0.25486365 0.06979933 -0.23363008 0.13368005 -0.20780285
0.19428413 -0.008263251 0.083857976 -0.21102172 -0.06445708 -0.1783856 -0.28057265 -0.32028183
-0.035073586 -0.21116693 0.28280523 0.11296327 -0.074304305 -0.113891095 0.23447067 -0.06892146
0.18927613 0.13243127 -0.05538695 -0.18473223 0.3414225 -0.002906894 0.0670014 0.026208682
0.2621784 -0.32661507 0.2479696 0.23923649 0.24138002 -0.28000653 0.3428134 0.13596533
0.1784926 0.06053008 -0.24122256 0.11691854 -0.2968213 0.06146889 0.18445309 0.06544214
-0.056349684 -0.16659486 -0.27729043 -0.14103988 -0.06144768 0.12549196 -0.17462003 0.24382061
-0.20787205 0.17415811 0.22661938 -0.10338285 -0.12970798 -0.14737289 -0.012152145 -0.032056898
0.17468823 0.16703987 0.052110806 0.27240518 -0.21792857 -0.1527141 -0.12027821 -0.11785264
0.024441198 0.030655814 -0.1898365 0.22305106 0.123554826 0.045996193 -0.24469392 0.01343823
0.15329431 -0.1153541 -0.09547941 -0.2777673 -0.31024748 0.28169346 0.030669192 -0.25297916
0.1560887 0.09631975 0.1361686 0.24701712 -0.12186392 -0.14107531 -0.14442927 0.016337741
-0.27571976 -0.13415618 0.012502451 0.041046508 -0.19307312 -0.2725876 -0.13152632 -0.26301175
-0.25867793 0.079649165 -0.25008377 -0.25175354 -0.13229677 -0.40177134 0.2784675 0.15016818
0.010290041 -0.118069336 0.18447323 -0.06981599 -0.3079945 -0.17177767 -0.4142038 0.26959857
0.1474501 -0.27822092 -0.20231593 0.2686386 0.21489193 -0.10543292 0.10842565 -0.08567181
-0.12681742 0.24582809 -0.14743245 0.07426429 0.15127651 0.026040984 -0.3382792 -0.21527165
0.02478301 0.017342329 0.22995296 -0.3012633 0.30192897 -0.22974709 -0.11298249 0.23729348
-0.2666104 0.1431257 -0.09790187 0.17124072 0.024488168 -0.17362356 -0.18323559 0.101711266
-0.023843063 -0.001244124 0.055297967 0.06642115 -0.11513076 0.30963194 0.2591878 -0.021299968
0.1354802 0.18301754 0.2974899 0.013632814 -0.011972728 -0.048397053 -0.39552823 -0.14164756
-0.079088874 0.12237566 0.072588265 0.18006822 -0.024699343 0.058596864 0.10975063 0.10208081
-0.20023179 0.21363163 -0.19313253 0.17174415 0.17574276 0.20921499 -0.04192556 0.27729514
-0.4280346 0.07093448 -0.11217945 0.16526926 0.22806455 -0.17704947 -0.22596766 0.11586045
00000000: 3c66 5cbe fe19 9cbd 4a3c 363d d392 92be
00000010: fe28 893e 3716 cdbd 696a 12bd abd6 27be
00000020: 59d3 a2bd 650e b93b 344f fe3c ea2f 57be
00000030: 3a76 523e 2c21 1a3e e1e5 1cbe 4978 853e
00000040: e1c6 42be 0b27 2bbe fd44 753e 8c33 e1bd
00000050: bc73 8fbe 6949 0ebe a9b2 24be dd61 d13e
00000060: 4dd4 4fbd 26b4 6fbe 374c 5dbe e721 8e3e
00000070: 29ed f33d 797f 15be b0a1 6abe d4d2 193d
00000080: b4f1 9bbe 9229 793e 094e a23e 7f12 4d3e
00000090: 80b4 a23e 835e cebd 7c86 a5bd 3c4a e8bd
000000a0: 5443 0d3e 5941 26bc 4ab7 0cbe 472a 6abe
000000b0: 33bf 17be 7c5c 433e 9f8a 043e 4801 7abe
000000c0: 23ef 653c ab61 203d f8f5 04ba c2bc 853e
000000d0: c5d1 0a3e b628 893e 50a0 7d3d 5664 383e
000000e0: bcb6 e83d 996f c03e 37f1 b5be e51d 80be
000000f0: 6d66 a53d b066 793e 8b69 35be 2dc8 753e
00000100: d305 933e ae97 78bd d4da cabd 7d7d 823e
00000110: f3f2 8e3d b93c 6fbe 6ce3 083e 45ca 54be
00000120: 6bf2 463e 9662 07bc bbbd ab3d 1416 58be
00000130: 1302 84bd b7aa 36be 38a7 8fbe fbfb a3be
00000140: 52a9 0fbd 253c 58be d9cb 903e 4959 e73d
00000150: db2c 98bd bc3f e9bd 1419 703e b226 8dbd
00000160: 9ad1 413e 109c 073e 6ddd 62bd 722a 3dbe
00000170: eece ae3e 9781 3ebb 0838 893d 97b3 d63c
00000180: 3f3c 863e 173a a7be beeb 7d3e 69fa 743e
00000190: 532c 773e 045d 8fbe 3d85 af3e 7f3a 0b3e
000001a0: c4c6 363e 64ee 773d 0c03 77be fd72 ef3d
000001b0: f6f8 97be cec6 7b3d 45e1 3c3e 8706 863d
000001c0: edce 66bd d897 2abe 03f9 8dbe c26c 10be
000001d0: 90b0 7bbd f780 003e 98cf 32be 1cac 793e
000001e0: 69dc 54be 8156 323e e90e 683e 63ba d3bd
000001f0: 2bd2 04be ebe8 16be ca19 47bc 184e 03bd
00000200: 79e1 323e 800c 2b3e 2472 553d b178 8b3e
00000210: ab28 5fbe 1661 1cbe 6c54 f6bd ba5c f1bd
00000220: e838 c83c e721 fb3c 8064 42be 7f67 643e
00000230: 500a fd3d 8166 3c3d 0b91 7abe 062c 5c3c
00000240: 2ff9 1c3e c53e ecbd b58a c3bd 8437 8ebe
00000250: c2d8 9ebe 203a 903e f53d fb3c 7c86 81be
00000260: b7d5 1f3e 4a43 c53d c86f 0b3e 0ef2 7c3e
00000270: ca93 f9bd 0c76 10be 44e5 13be bad6 853c
00000280: 242b 8dbe 3d60 09be 15d7 4c3c 6220 283d
00000290: f6b4 45be 9a90 8bbe d6ae 06be 7aa9 86be
000002a0: 6f71 84be 1a1f a33d fb0a 80be d7e5 80be
000002b0: ce78 07be f9b4 cdbe 4b93 8e3e b0c5 193e
000002c0: 8f97 283c 56ce f1bd 8de6 3c3e b0fb 8ebd
000002d0: 75b1 9dbe 7ce6 2fbe 8512 d4be d308 8a3e
000002e0: 29fd 163e f972 8ebe e82b 4fbe 008b 893e
000002f0: a10c 5c3e 37ed d7bd 440e de3d b474 afbd
00000300: 6ddc 01be 5cba 7b3e 88f8 16be e017 983d
00000310: 3be8 1a3e e753 d53c ee32 adbe 2c70 5cbe
00000320: bd05 cb3c 8011 8e3c ca78 6b3e 2f3f 9abe
00000330: 6f96 9a3e d242 6bbe 5d63 e7bd 10fd 723e
00000340: 2981 88be 8b8f 123e c780 c8bd ba59 2f3e
00000350: 699b c83c 60ca 31be 1ca2 3bbe ff4d d03d
00000360: 8752 c3bc e011 a3ba 1f80 623d d007 883d
00000370: adc9 ebbd 1488 9e3e 43b4 843e 457d aebc
00000380: 52bb 0a3e f368 3b3e 9950 983e 2b5c 5f3c
00000390: 4329 44bc fd3b 46bd ad82 cabe 0f0c 11be
000003a0: 59f9 a1bd 17a0 fa3d 28a9 943d ce63 383e
000003b0: 4756 cabc 4403 703d f0c4 e03d be0f d13d
000003c0: 9009 4dbe 40c2 5a3e 89c4 45be b3dd 2f3e
000003d0: e9f5 333e 743c 563e 23ba 2bbd a1f9 8d3e
000003e0: 5a27 dbbe 1946 913d 57be e5bd 583c 293e
000003f0: c189 693e 754c 35be 1164 67be 3e48 ed3d

edge_message_mlp.2.bias f4 [64]
-0.0022850328 -0.01859457 -0.012111915 -0.01929065 0.0020143061 -0.041325696 0.01011702 0.0016496641
0.030471824 0.0094215 -0.0068397126 0.026357558 -0.04157771 -0.033890754 -0.048314147 -0.0046648844
-0.035925377 0.0026762148 -0.0062031094 -0.023813995 -0.0041754493 -0.029008294 -0.031562135 -0.03823726
0.021460641 -0.02853345 -0.030566841 -0.014497253 -0.023074662 0.035753705 -0.012204896 -0.021723902
0.0029386438 -0.009974632 0.00048040165 -0.05089695 -0.002662812 -0.01384426 -0.036968403 0.019876702
-0.021342736 -0.0054703816 0.009629613 -0.009162903 -0.0010667384 -0.024529558 0.021660762 -0.0040657003
-0.022707442 -0.02352213 -0.0111557655 0.0037057917 -0.00996997 -0.023633504 -0.022632986 -0.008711073
-0.014240215 -0.01857315 -0.017875256 -0.025713518 -0.012188606 -0.035839446 -0.018007299 -0.016364498
00000000: 7dc0 15bb a453 98bc 0e71 46bc 6d07 9ebc
00000010: 7302 043b 2245 29bd dcc1 253c 8b39 d83a
00000020: 0ca0 f93c a35c 1a3c ab1f e0bb ceeb d73c
00000030: 644d 2abd 08d1 0abd 0ee5 45bd e3db 98bb
00000040: 7d26 13bd 6f63 2f3b 7443 cbbb 9115 c3bc
00000050: 35d2 88bb cda2 edbc 4c47 01bd ac9e 1cbd
00000060: 3ace af3c fbbe e9bc 5067 fabc e385 6dbc
00000070: 1307 bdbc 7a72 123d 0bf7 47bc 53f6 b1bc
00000080: 4396 403b a46c 23bc 6bde fb39 5279 50bd
00000090: 9282 2ebb 09d3 62bc 2e6c 17bd 77d4 a23c
000000a0: f6d6 aebc e340 b3bb 86c5 1d3c 0020 16bc
000000b0: cdd1 8bba 36f2 c8bc e971 b13c 9139 85bb
000000c0: f504 babc 7bb1 c0bc acc6 36bc dedc 723b
000000d0: 1659 23bc 0d9b c1bc d068 b9bc e3b8 0ebc
000000e0: ca4f 69bc b826 98bc 216f 92bc 28a5 d2bc
000000f0: b8b2 47bc 62cc 12bd 0b84 93bc d70e 86bc

edge_message_mlp.4.weight f4 [64, 64]
0.03980175 0.18029004 -0.059066433 -0.21364817 -0.118094206 -0.17449814 0.1415319 0.23603603
0.12551011 -0.14027344 -0.01572593 0.002061752 0.20383388 -0.026925676 0.0111916745 0.24955289
0.16995598 -0.06422295 -0.115706146 0.0048406087 -0.16535656 0.018969037 -0.22529808 -0.084137306
0.25148275 -0.004651399 0.27884394 -0.12163916 -0.04706254 0.1677163 -0.09217535 -0.24631174
-0.17826132 0.03593577 0.19475856 -0.2648429 -0.17054345 -0.12422056 -0.2532194 -0.26545602
0.278934 0.054402616 0.0634746 0.030120749 -0.12648842 0.06378973 -0.20863143 0.064830035
0.030044936 -0.21696842 0.030719401 0.30113268 0.24754708 -0.29274005 -0.16640203 -0.057749856
0.113257624 0.14330667 0.13948286 -0.10952804 0.1783807 0.01878596 0.08083495 0.09735389
-0.26566473 0.21255955 -0.14366579 -0.020407517 -0.08936236 0.26847133 0.007213877 -0.23134728
-0.1249362 -0.213836 -0.14652997 0.16503203 -0.16946091 0.21756527 0.17785668 -0.010772123
0.11822338 0.21567355 -0.09489812 0.055715498 0.30496418 0.16569762 0.18587473 0.10226867
0.008296012 0.38453642 -0.10365407 -0.122311495 -0.07460743 0.32363716 -0.02608129 -0.20620269
-0.1481363 -0.23400661 0.02709797 -0.0064114365 0.0830175 -0.078911684 -0.2668753 0.06405467
0.24058545 0.043157574 0.28873977 -0.20688806 -0.09637515 0.32998693 0.02042762 0.07934905
0.16910504 0.26683363 0.1882072 0.06839882 -0.17095962 0.19034265 -0.19517004 -0.16880798
-0.047023173 -0.28492698 0.18756105 0.11014412 -0.30901563 0.24026832 0.07414721 -0.12583877
-0.3530504 0.15207344 0.23857127 0.098042995 -0.35514164 -0.026657362 0.12285695 0.2762259
0.040185228 -0.29096076 0.1259248 0.32127562 0.18191424 0.06126572 0.19137731 0.10846686
0.12902094 0.120934665 -0.041303284 0.033766925 0.0214242 -0.07135689 -0.18895344 -0.11918404
-0.008833425 -0.029977832 -0.03536305 0.2029978 -0.30791116 -0.22044623 -0.022207912 -0.2249468
-0.08083252 0.08556356 0.26663774 -0.12535661 -0.19282381 -0.23547113 0.056817338 0.12670037
-0.07276185 -0.22071639 -0.08714455 0.11294052 -0.004841116 -0.22150165 0.12662794 0.0022097833
-0.18232581 -0.07729904 -0.08702943 0.16242918 -0.06542268 0.24980459 -0.19489396 0.21731643
-0.16966136 0.015394399 0.2761959 0.14077355 -0.17784388 -0.2360196 0.2993964 0.19153231
0.27250612 0.112542026 0.0576832 -0.23296472 -0.1760199 -0.20314719 0.05648978 0.22208168
-0.17439291 0.10797985 -0.15401699 -0.29374677 -0.24068406 0.18673037 -0.087217346 -0.13505615
0.17400557 -0.109821804 0.37722173 0.0053821006 -0.012371426 -0.17333534 0.17934398 -0.14099969
0.24781023 -0.16366279 -0.18261185 -0.08625077 0.028261062 0.21811588 0.004298463 -0.051142596
0.25410974 0.18626177 0.056714766 -0.03451778 -0.14593695 -0.27199498 0.24355324 0.2876987
-0.1435732 -0.121145345 0.20628199 -0.2171974 0.061548464 -0.10804535 -0.3059673 -0.030259278
-0.2634407 0.1118916 0.081957534 -0.01714955 -0.11143914 0.15658651 0.04934199 -0.015788035
-0.27782074 -0.23464897 -0.2579372 0.24687025 -0.18054543 -0.024550954 0.2284405 0.005284594
00000000: 2907 233d f49d 383e a5ef 71bd 96c6 5abe
00000010: 60db f1bd a4af 32be bded 103e 6eb3 713e
00000020: b985 003e d7a3 0fbe aad3 80bc 751e 073b
00000030: d4b9 503e 3c93 dcbc 495d 373c cb8a 7f3e
00000040: f108 2e3e 5287 83bd 58f7 ecbd f89d 9e3b
00000050: 3b53 29be f464 9b3c 8ab4 66be 2e50 acbd
00000060: 59c2 803e c36a 98bb a2c4 8e3e f41d f9bd
00000070: a6c4 40bd d2bd 2b3e 6ec6 bcbd 2539 7cbe
00000080: 238a 36be 6331 133d ca6e 473e 7d99 87be
00000090: f1a2 2ebe 5967 febd f9a5 81be dae9 87be
000000a0: 70d0 8e3e 47d5 5e3d f9fe 813d cabf f63c
000000b0: 2e86 01be 31a4 823d 7aa3 55be 9cc5 843d
000000c0: cc20 f63c f82c 5ebe 41a7 fb3c 102e 9a3e
000000d0: fb7c 7d3e 06e2 95be 4b65 2abe 1d8b 6cbd
000000e0: 9df3 e73d fcbe 123e 98d4 0e3e 3d50 e0bd
000000f0: 6ea9 363e 03e5 993c cb8c a53d 7a61 c73d
00000100: 3505 88be 36a9 593e 201d 13be aa2d a7bc
00000110: 9d03 b7bd 1375 893e 6362 ec3b 4de6 6cbe
00000120: 8dde ffbd d3f7 5abe f40b 16be 28fe 283e
00000130: 2987 2dbe 6ec9 5e3e 1020 363e 8f7d 30bc
00000140: 191f f23d 87d9 5c3e f259 c2bd ef35 643d
00000150: 4424 9c3e a3ac 293e f255 3e3e 3d72 d13d
00000160: ffeb 073c f5e1 c43e 9648 d4bd 737e fabd
00000170: c8cb 98bd c5b3 a53e 6ea8 d5bc cc26 53be
00000180: 0bb1 17be 6e9f 6fbe 90fc dd3c 0717 d2bb
00000190: 1405 aa3d 739c a1bd e1a3 88be 182f 833d
000001a0: 085c 763e ffc5 303d b3d5 933e 77da 53be
000001b0: 5660 c5bd 0cf4 a83e d357 a73c c181 a23d
000001c0: df29 2d3e 6b9e 883e 63b9 403e ae14 8c3d
000001d0: 0a10 2fbe 2fe9 423e a8da 47be 00dc 2cbe
000001e0: 5f9b 40bd f3e1 91be 0110 403e 3e93 e13d
000001f0: 4c37 9ebe e608 763e 7eda 973d e1db 00be
00000200: 06c3 b4be 24b9 1b3e 074c 743e c4ca c83d
00000210: 20d5 b5be 8a60 dabc 6d9c fb3d 7b6d 8d3e
00000220: 4499 243d cff8 94be 6ef2 003e 3d7e a43e
00000230: ba47 3a3e c3f1 7a3d 6af8 433e e023 de3d
00000240: 111e 043e 98ac f73d a22d 29bd 304f 0a3d
00000250: ce81 af3c 9023 92bd 037d 41be c316 f4bd
00000260: 12ba 10bc 1294 f5bc d8d8 10bd a8de 4f3e
00000270: 88a6 9dbe a8bc 61be 5eed b5bc 7458 66be
00000280: 858b a5bd f33b af3d be84 883e 7c5d 00be
00000290: 9b73 45be 581f 71be 4cb9 683d bebd 013e
000002a0: 2a04 95bd 7a03 62be d878 b2bd 5c4d e73d
000002b0: 39a2 9ebb 54d1 62be c1aa 013e 03d2 103b
000002c0: 9eb3 3abe f64e 9ebd 7c3c b2bd d653 263e
000002d0: 53fc 85bd c6cc 7f3e 4892 47be 3388 5e3e
000002e0: b5bb 2dbe ca38 7c3c 8d69 8d3e f126 103e
000002f0: b51c 36be 1faf 71be 7c4a 993e 0c21 443e
00000300: ec85 8b3e 6f7c e63d 3845 6c3d 4e8e 6ebe
00000310: 903e 34be d105 50be d461 673d 6169 633e
00000320: 0e94 32be 8a24 dd3d a1b6 1dbe fa65 96be
00000330: e275 76be 3f36 3f3e 029f b2bd 294c 0abe
00000340: 842e 323e 41ea e0bd 3523 c13e 555c b03b
00000350: 86b1 4abc d27e 31be f3a5 373e 3962 10be
00000360: f7c1 7d3e 3897 27be 9afe 3abe 3ea4 b0bd
00000370: be83 e73c c559 5f3e 1fda 8c3b e67a 51bd
00000380: ac1a 823e 68bb 3e3e be4d 683d 8462 0dbd
00000390: 7f70 15be ed42 8bbe 0566 793e 3e4d 933e
000003a0: da04 13be 0d1b f8bd 963b 533e ff68 5ebe
000003b0: 3e1a 7c3d e146 ddbd bfa7 9cbe 4ee2 f7bc
000003c0: b3e1 86be 6c27 e53d 5ad9 a73d 377d 8cbc
000003d0: 343a e4bd 3758 203e d41a 4a3d e955 81bc
000003e0: 853e 8ebe d247 70be 5810 84be 8ecb 7c3e
000003f0: e7e0 38be 151f c9bc 4eec 693e 632a ad3b

edge_message_mlp.4.bias f4 [64]
-0.0024293554 0.024814159 0.01275678 0.011678889 0.00027675668 -0.009735706 0.006948807 0.009150318
-0.017839076 -0.006777753 0.010381537 -0.00094482925 -0.025328692 0.008599896 -0.0014010917 -0.013706217
0.037087765 0.007401424 -0.00551244 0.03191899 0.0038360402 0.008340006 -0.01306496 0.0034948587
-0.01372362 0.013584973 0.010266832 0.0045045004 -0.0019000806 0.012395339 0.012605643 0.002850402
0.03317205 -0.008000783 -0.0045346795 -0.017346675 -0.000668531 -0.010834953 0.014846001 0.004363101
-0.005933522 0.0039363415 -0.013357782 -0.0049851565 -0.014978263 -0.00032117247 -0.004732071 -0.0010762743
-0.01603013 -0.016519701 -0.00052905775 -0.008788331 -0.012971051 0.0024643606 0.012945969 -0.00052076357
-0.018716052 0.012131545 -0.010153522 0.0042993953 -0.0036869168 -0.0013649609 0.017711109 0.01006038
00000000: d235 1fbb 1047 cb3c d001 513c d058 3f3c
00000010: a719 9139 8382 1fbc d1b2 e33b 37eb 153c
00000020: 4123 92bc ea17 debb 5217 2a3c 6bae 77ba
00000030: 1e7e cfbc 94e6 0c3c d6a4 b7ba 0a90 60bc
00000040: 57e9 173d a587 f23b b3a1 b4bb 7dbd 023d
00000050: 1366 7b3b 85a4 083c 6a0e 56bc 000a 653b
00000060: 09d9 60bc 8293 5e3c 3736 283c 7d9a 933b
00000070: 200c f9ba d215 4b3c e687 4e3c cfcd 3a3b
00000080: 6adf 073d b715 03bc a697 94bb 9d1a 8ebc
00000090: 5b40 2fba 1685 31bc a43c 733c 58f8 8e3b
000000a0: fd6d c2bb 6dfc 803b 99da 5abc 865a a3bb
000000b0: 6367 75bc 0a63 a8b9 7d0f 9bbb c611 8dba
000000c0: 9f51 83bc 5354 87bc 77b0 0aba effc 0fbc
000000d0: 8884 54bc 1c81 213b 541b 543c da83 08ba
000000e0: 6852 99bc 63c3 463c f55a 26bc f1e1 8c3b
000000f0: 33a0 71bb 7de8 b2ba e316 913c 4bd4 243c

vertex_message_mlp.0.weight f4 [64, 64]
0.22708973 -0.30147573 0.13653274 0.12716715 0.06398736 -0.005431795 0.16804618 -0.060202736
0.043340754 -0.15202579 -0.10302875 0.13822372 -0.012412734 0.2298707 -0.034102917 0.20962459
0.10264464 0.02097246 -0.2957077 0.095075004 -0.12809274 -0.2506428 0.18678066 0.26949468
0.20559919 0.1849269 -0.05726411 0.052944947 -0.30991364 -0.011020313 0.018136837 0.01206628
0.08705221 -0.060930476 -0.20378831 0.19672282 -0.20676152 0.24699652 0.277026 -0.31115708
-0.121653475 0.008432249 0.22982174 0.29755908 -0.09374826 -0.30661362 -0.14140096 0.1470075
0.24232122 -0.25413266 -0.15306498 -0.07583937 0.22654137 -0.09745525 0.045453854 0.12943183
0.12609094 0.15142748 0.26922566 -0.010366999 0.029289888 -0.32051492 0.28387642 0.2632305
-0.15185627 -0.12757598 -0.04253157 0.17357346 0.007083431 -0.3553058 -0.1913305 -0.258893
-0.2781005 -0.22195116 -0.093965836 0.10772144 -0.08050346 0.14461711 -0.28307858 0.123962775
-0.3399893 0.2692299 -0.20488815 0.10860024 0.14459197 0.15570083 -0.24710123 -0.14421736
-0.17832889 0.092532605 -0.07217057 -0.31092942 -0.11215491 -0.051353227 0.09292216 -0.22250722
-0.17675465 -0.27997133 -0.22916318 -0.24813168 -0.0071938457 -0.06692217 -0.25024393 -0.09735403
0.30548224 0.25033364 0.31867874 -0.21245475 -0.090022735 -0.22214818 0.09736654 0.05084158
-0.24779065 -0.18685636 -0.07499179 0.044887915 -0.18389346 -0.21358138 0.24471979 0.24093051
-0.0024558583 -0.15779795 -0.0034568831 -0.216471 0.13787554 -0.23534201 0.2643135 -0.13592362
-0.16217734 0.26828137 0.23835747 -0.09191738 -0.21039091 -0.37113366 -0.3120474 0.069824904
-0.26959166 -0.0053213714 -0.0042371983 -0.1856053 0.14850391 0.39406952 -0.049156353 -0.06073367
-0.23998281 0.13548724 0.148213 0.30053613 -0.19885446 0.013289184 0.3030929 -0.07361283
-0.19294398 0.143072 -0.12802488 0.10480594 0.28053942 0.030868318 -0.25564238 0.1768056
0.089044474 -0.22916268 -0.13889025 -0.075629205 -0.34455377 0.5310078 -0.15212117 -0.16599432
0.12011516 0.16385831 0.109646 -0.18153672 -0.21607718 -0.27342558 0.07679514 -0.22051254
-0.29819888 0.011559921 -0.07895053 0.065558694 0.1537306 -0.07458377 -0.075618826 -0.25349647
-0.12808235 -0.07327852 0.14923342 -0.15378498 -0.12334939 0.28593343 -0.004097375 0.3298611
0.14426744 -0.15655243 -0.17270868 -0.260721 0.20582926 0.10752667 0.28161228 0.027955875
-0.14491154 -0.04229259 0.1958926 -0.047442157 -0.21985626 -0.24106087 -0.18739787 0.14554554
0.27206454 0.05493063 -0.08254436 0.15820025 -0.24712773 0.3100371 0.20306268 0.023971098
-0.014917448 -0.28858182 0.20983443 -0.044441566 0.24298842 -0.2144044 0.16284665 -0.14585304
-0.2837561 0.09846089 0.027774276 -0.27383724 -0.01959658 0.081123084 0.17985028 -0.0061769867
0.28658724 0.1492497 0.11797231 0.24668227 -0.19918287 0.13141552 0.11224723 -0.17357993
0.07586339 0.08994246 -0.048277475 0.03406328 0.18083213 0.18267505 -0.18330404 0.061803877
0.14172868 0.052163985 0.27830523 -0.1337447 -0.039321393 -0.14042348 0.4202765 -0.26682845
00000000: 368a 683e 075b 9abe 3dcf 0b3e 1b38 023e
00000010: ce0b 833d 33fd b1bb 4c14 2c3e 2597 76bd
00000020: 1386 313d a6ac 1bbe bd00 d3bd 858a 0d3e
00000030: c85e 4bbc 3a63 6b3e 80af 0bbd d4a7 563e
00000040: 5a37 d23d 70ce ab3c 0067 97be afb6 c23d
00000050: be2a 03be 4154 80be 6e43 3f3e 35fb 893e
00000060: 9888 523e 7a5d 3d3e c58d 6abd cddc 583d
00000070: 00ad 9ebe 8b8e 34bc b493 943c a5b1 453c
00000080: 6e48 b23d 3c92 79bd e2ad 50be b571 493e
00000090: 4bb9 53be a8ec 7c3e 5ad6 8d3e fb4f 9fbe
000000a0: 7525 f9bd 6a27 0a3c 6456 6b3e aa59 983e
000000b0: 16ff bfbd 76fc 9cbe 6acb 10be 2289 163e
000000c0: 0e23 783e ad1d 82be 11bd 1cbe ac51 9bbd
000000d0: 76fa 673e 9e96 c7bd d22d 3a3d c789 043e
000000e0: fc1d 013e ce0f 1b3e f2d7 893e 58da 29bc
000000f0: 59f1 ef3c 881a a4be 4058 913e 26c6 863e
00000100: 3680 1bbe 47a3 02be 9535 2ebd 3ebd 313e
00000110: 201c e83b a4ea b5be 25ec 43be a08d 84be
00000120: 3063 8ebe 2a47 63be 2971 c0bd 0f9d dc3d
00000130: ffde a4bd 8216 143e adef 90be 32e0 fd3d
00000140: 1413 aebe 80d8 893e 33ce 51be cd69 de3d
00000150: eb0f 143e 0a70 1f3e 1b08 7dbe b7ad 13be
00000160: d99b 36be bc81 bd3d 2ace 93bd 2432 9fbe
00000170: 79b1 e5bd c357 52bd f94d be3d efd8 63be
00000180: 2cff 34be 6758 8fbe c1a9 6abe 3b16 7ebe
00000190: 5aba ebbb 7e0e 89bd f91f 80be 8d61 c7bd
000001a0: 2b68 9c3e bb2b 803e dc29 a33e bd8d 59be
000001b0: d75d b8bd d07a 63be 1c68 c73d 433f 503d
000001c0: d5bc 7dbe 4657 3fbe 4c95 99bd 64dc 373d
000001d0: 914e 3cbe 14b5 5abe d397 7a3e 7db6 763e
000001e0: 77f2 20bb c995 21be e08c 62bb 93aa 5dbe
000001f0: 3f2f 0d3e 7ffd 70be 1954 873e 902f 0bbe
00000200: d111 26be 2d5c 893e fb13 743e 2e3f bcbd
00000210: b770 57be 3b05 bebe adc4 9fbe 5c00 8f3d
00000220: eb07 8abe e65e aebb 32d8 8abb 510f 3ebe
00000230: 6911 183e 7bc3 c93e 2c58 49bd dec3 78bd
00000240: 0ebe 75be 2bbd 0a3e 26c5 173e dfdf 993e
00000250: 81a0 4bbe e1ba 593c fe2e 9b3e 53c2 96bd
00000260: 1b93 45be 7781 123e f418 03be 7fa4 d63d
00000270: dda2 8f3e 8edf fc3c 8fe3 82be 870c 353e
00000280: f35c b63d 9fa9 6abe 3f39 0ebe 7ce3 9abd
00000290: 5a69 b0be 21f0 073f a7c5 1bbe 6afa 29be
000002a0: f0fe f53d 79ca 273e 158e e03d c3e4 39be
000002b0: 5643 5dbe 70fe 8bbe c546 9d3d 0ace 61be
000002c0: 86ad 98be d365 3d3c d1b0 a1bd a343 863d
000002d0: 8e6b 1d3e 60bf 98bd 0bde 9abd 4aca 81be
000002e0: 0528 03be 0c13 96bd a5d0 183e cf79 1dbe
000002f0: 9b9e fcbd de65 923e 4643 86bb 8ee3 a83e
00000300: d8ba 133e 484f 20be 8bda 30be 397d 85be
00000310: e8c4 523e f136 dc3d 7c2f 903e b803 e53c
00000320: b163 14be ff3a 2dbd 1298 483e b552 42bd
00000330: 0022 61be a9d8 76be 3ae5 3fbe e409 153e
00000340: 0b4c 8b3e f1fe 603d 040d a9bd 3fff 213e
00000350: 0d0f 7dbe 2fbd 9e3e aaef 4f3e 095f c43c
00000360: 5068 74bc ffc0 93be d6de 563e 5c08 36bd
00000370: f5d1 783e d48c 5bbe 46c1 263e 805a 15be
00000380: 7b48 91be dda5 c93d e186 e33c 6534 8cbe
00000390: 0289 a0bc dc23 a63d ac2a 383e 5268 cabb
000003a0: 90bb 923e ead4 183e 779b f13d 479a 7c3e
000003b0: 98f6 4bbe ca91 063e e0e1 e53d f0be 31be
000003c0: 445e 9b3d c133 b83d 9abe 45bd f085 0b3d
000003d0: 0f2c 393e 2b0f 3b3e 0eb4 3bbe 1026 7d3d
000003e0: 5321 113e e7a9 553d 067e 8e3e 5ff4 08be
000003f0: 780f 21bd 2ccb 0fbe 7b2e d73e bd9d 88be
