sat/trained_models/pretrained_csat.pt (torch, 585717 bytes, 21 tensors)

init.weight f4 [100, 4]
000000 b1 93 91 3b e3 41 84 3e f1 3b d7 be ea 18 c6 be
       0.004442655 0.25831518 -0.4203792 -0.38690883
000010 36 d7 3f be ea 14 07 3e 3a 94 07 bd ff d7 b3 3e
       -0.1873444 0.13191572 -0.033100344 0.3512573
000020 90 f9 32 bd a9 1d e6 3d ac 2d 29 be c2 0b 9e bd
       -0.043695033 0.11236126 -0.16521329 -0.077170864
000030 4c de f5 be ca fc ad be 21 e7 47 be 75 51 04 bb
       -0.48021162 -0.33981925 -0.19521762 -0.0020190154
000040 d8 fc 57 3e 48 fd a4 3e ff 06 bc be b7 f1 41 be
       0.21092546 0.32224488 -0.36724088 -0.18939863
000050 74 77 44 3e 0a 0a de 3e 89 fa f8 bd b8 80 bd 3e
       0.19186193 0.43367034 -0.12157161 0.37012267
000060 26 d0 4b bd 01 9c a2 3d 58 ac ef 3e e8 81 e1 be
       -0.049759053 0.07939912 0.46811175 -0.44044423
000070 4e d5 9f be 97 2f e7 bd 81 d8 4a be 50 40 e7 3e
       -0.31217426 -0.11288374 -0.19809152 0.45166254
000080 3e 9a a1 be 31 f3 63 be 29 a6 c0 be 0a 4d f4 be
       -0.3156299 -0.22260739 -0.3762677 -0.47715026
000090 a8 b3 93 be d1 cf e1 3e e9 41 57 3e 24 c4 88 3e
       -0.28848004 0.44103864 0.21021236 0.26712143
0000a0 b6 8b 94 3c b2 b5 85 be 28 14 a7 3d aa 6c eb be
       0.018133026 -0.26115185 0.081581414 -0.45981342
0000b0 ad 27 b3 be af 2d 7a be b0 3d 97 3e 60 a4 a2 3e
       -0.34991208 -0.2443149 0.2953925 0.31766033
0000c0 27 50 5c be eb 46 a6 bc ab 86 aa 3e 46 18 ef 3e
       -0.2151495 -0.020297488 0.33305869 0.46698207
0000d0 2a 13 40 3e 91 45 73 3d 53 3b a4 3e 4d 52 9b be
       0.1875731 0.059392516 0.3207651 -0.30336228
0000e0 56 38 d8 3d 92 31 be be e6 96 bc be df f7 81 be
       0.1055762 -0.37147194 -0.36833876 -0.25384423
0000f0 72 42 65 3e 8d 8f 4a 3e ae 3b 98 be 94 4a f5 3d
       0.22388628 0.19781323 -0.29733032 0.11977115
000100 0b b0 89 3e c6 37 84 bd 22 8e 67 3c bd ed cc 3d
       0.26892123 -0.064559504 0.014133008 0.100062825
000110 ea 64 9a 3e d9 76 f6 3e 4f b7 c6 be 28 8a 13 be
       0.30155116 0.4813755 -0.38811728 -0.14408171
000120 7f 16 42 3e 2c 18 cf 3e 9f 44 ea 3e 23 b4 db 3e
       0.18953894 0.4044813 0.4575548 0.4291087
000130 ac 29 d6 3d 6a 6d d7 be e8 94 3f 3d 94 50 8d be
       0.10457167 -0.42075664 0.046772867 -0.2760054
000140 0d e9 ea be 4e 6c e7 3e 08 1d b7 3e 04 42 e8 be
       -0.4588093 0.45199817 0.35764337 -0.45362866
000150 9c b9 bc 3d f3 2f 9f bd e3 c3 b0 bd 13 d3 72 be
       0.0921509 -0.077728175 -0.086311124 -0.23713331
000160 84 3d 33 3e a0 7a a0 be 48 11 46 3e 17 fb 75 3e
       0.17503935 -0.31343555 0.1934253 0.24021564
000170 1a 4b b7 3e 16 83 34 3e fc e9 02 bf a4 1d 9e be
       0.35799485 0.1762813 -0.5113828 -0.3088199
000180 b7 ed 81 3e e1 f6 da 3d 2b 19 d6 be e7 7b 90 be
       0.25376675 0.1069162 -0.41816077 -0.2821953
000190 5e 2b eb 3e 8a 3e a9 3e 94 6c 68 be 05 1f d2 bd
       0.45931524 0.33055526 -0.2269767 -0.10259823
0001a0 da 33 ed be 57 27 0f bc 05 f3 ba be 45 11 d6 be
       -0.46328622 -0.008737407 -0.36513534 -0.4181005
0001b0 1b 41 bf bc 06 0f aa 3d cf d7 5b be e1 64 a0 3e
       -0.023346474 0.08303647 -0.21469043 0.31326964
0001c0 0f c6 9b be 4c b1 e4 3e 42 c8 9b 3e 9d e8 d3 be
       -0.30424544 0.44666517 0.30426222 -0.41388407
0001d0 86 e4 e3 bd c8 7b 25 3d 18 33 9f 3d 66 3d 06 3e
       -0.11127572 0.04040125 0.07773417 0.13109359
0001e0 46 ed 48 3e e0 54 2a 3d f9 81 6b be 44 0c 51 3e
       0.19621763 0.04158485 -0.229988 0.20414835
0001f0 46 4c f3 be 7c 34 91 be 3b af 0f be df bc 58 be
       -0.4751913 -0.28360355 -0.14031689 -0.21165799
000200 40 e4 29 be 11 24 c7 be 2c 59 bc bd f3 53 dd 3d
       -0.16590977 -0.38894704 -0.09196696 0.10807028
000210 a6 8a a6 be 5d 02 82 bc 9d 37 aa 3e 1a cc a5 bc
       -0.32527655 -0.015870268 0.33245555 -0.020238925
000220 9a 68 81 3b 96 3c 4c bd 15 5a b9 3d 89 f2 b3 3e
       0.003949237 -0.049862467 0.09050385 0.35145977
000230 5f ec ee 3e 20 b4 9c 3e 6d 0d ee 3e 7d 49 d3 bb
       0.46664712 0.30606174 0.46494618 -0.0064479695
000240 40 63 da be 01 4d 6b be ce 34 af 3e 9d 19 03 3d
       -0.42653847 -0.22978593 0.34219974 0.03200685
000250 5b e4 82 be 27 28 c1 be 6d c5 f5 be 1e 07 d7 be
       -0.25564846 -0.37725946 -0.48002186 -0.41997617
000260 26 d8 dc bd cf b1 8f 3e 65 f5 83 3e e0 b4 e6 be
       -0.107834145 0.28065345 0.2577316 -0.45059872
000270 16 b9 a2 3e b0 03 cb be 2a d1 cd bd 0e 15 61 be
       0.31781834 -0.3965125 -0.100496605 -0.21980688
000280 46 52 c2 bd d6 59 ae bd 2a 2e ee be 00 7d cb be
       -0.09488349 -0.085132286 -0.46519595 -0.39743805
000290 5c 94 98 bd 91 5b 25 bc 00 1b 64 be 8b b7 58 3e
       -0.07450172 -0.010092632 -0.22275925 0.21163766
0002a0 ce e0 e9 be a4 52 24 bd 44 2a e4 3e 88 02 3a be
       -0.45679325 -0.040117875 0.44563496 -0.18165028
0002b0 a4 7f e8 3e 72 72 38 3e 90 fe ea be 0d 6b ad 3e
       0.45409882 0.18012407 -0.4589734 0.33870736
0002c0 71 a4 48 bd cb e0 63 be 13 cc d4 3e 6a 4d d8 be
       -0.04898495 -0.2225372 0.41561946 -0.42246562
0002d0 fa 2a 38 3d 25 09 cc bd cf a8 b1 3e ac f6 35 3e
       0.04496286 -0.09962682 0.34699103 0.17769879
0002e0 72 7f 84 3e 3f c0 40 3e 24 ee c1 bd 65 58 07 be
       0.25878483 0.18823336 -0.0946925 -0.13217314
0002f0 3e 80 cf be a3 1c 89 3e ea ba d3 3e 14 0a 9d 3e
       -0.4052753 0.2677966 0.41353542 0.30671751
000300 d9 0b bc be 9e 5a c3 ba 79 7e b5 be 74 82 86 be
       -0.3672779 -0.0014904325 -0.35448053 -0.26271403
000310 c3 e1 95 be c9 5c 31 3e f0 46 90 be 05 b5 8b 3c
       -0.29273805 0.17320551 -0.2817912 0.01705409
000320 55 8a e5 3c 08 81 a6 3e fc 4e b9 be ee 4f c5 be
       0.028020063 0.32520318 -0.36193073 -0.38537544
000330 42 19 90 be d6 1e b2 3e ab 66 26 be 37 01 d5 3e
       -0.2814427 0.3478915 -0.16250102 0.4160249
000340 ad 9e 38 3e 51 bb 82 3d 8f 55 f8 3c ca c0 f2 bd
       0.1802928 0.06383384 0.030314235 -0.11853178
000350 c9 19 4e 3d db 47 da bd cc c7 97 bb 85 0c 6b 3d
       0.05031756 -0.106582366 -0.004631972 0.057384986
000360 2d 86 ca be 04 76 86 be ed 96 c4 3e e9 51 df be
       -0.39555493 -0.26261914 0.38396397 -0.4361718
000370 70 70 1c bd 40 08 fb 3e ca 68 48 3e 2c 1b 5d 3d
       -0.038193166 0.49029732 0.19571224 0.05398099
000380 86 59 df be 77 bb 78 3e 2c 18 c7 be 8f cc ef bd
       -0.43622988 0.24290262 -0.3888563 -0.11708938
000390 aa 83 1b be 3e 36 6c bd 8b 59 c3 bc 94 d1 e5 3e
       -0.15186945 -0.057668917 -0.023846408 0.44886458
0003a0 9a 63 95 3d 94 f5 ed 3e 80 a1 9c 3e 8e 64 af be
       0.07294388 0.46476424 0.30591965 -0.34256405
0003b0 ab 56 66 3e e3 b5 b0 be 58 8f 4e be ac 38 25 3e
       0.22493999 -0.3451377 -0.20171869 0.161349
0003c0 f5 1c 21 3e 21 69 be 3e 6f d3 25 be 65 2b f5 3c
       0.15733702 0.37189582 -0.16193937 0.029927919
0003d0 82 f0 85 3e 6a 7c f5 be ff 14 bb 3e f6 a1 ce be
       0.26160055 -0.47946483 0.36539456 -0.4035794
0003e0 9d fc 6c 3c 64 f3 97 bd be 5e 89 be c6 fe a0 3d
       0.014464525 -0.0741947 -0.26830095 0.07861094
0003f0 5a cf cd 3e 41 95 15 be 90 f5 8a be ae d8 36 be
       0.4019726 -0.14607717 -0.27140474 -0.17856094

init.bias f4 [100]
000000 04 5b 9b 3e 46 24 e3 3b b5 9d 74 be 5b fa ee 3e
       0.30342877 0.0069318144 -0.23888285 0.4667538
000010 67 7b 39 3e f6 83 c9 be a1 23 06 3f 89 35 ca 3e
       0.1811348 -0.3935849 0.52398115 0.3949397
000020 17 bf 59 be a5 87 8b 3e 0c 67 8d be e6 47 b5 bd
       -0.21264301 0.27251926 -0.2761768 -0.08851604
000030 c4 5e d9 3e 74 f1 a0 39 a7 47 bd be 8c 87 37 be
       0.42455113 0.00030697475 -0.3696873 -0.17922801
000040 6f c6 14 be ab 1c ac bd c7 dd 85 3d 4f af f3 3e
       -0.14528821 -0.084039055 0.06536441 0.47594687
000050 fa 18 0a 3d 02 8f a0 be a2 81 a7 3c 58 74 63 3e
       0.033715226 -0.31359106 0.020447556 0.2221235
000060 b4 5a 61 3e 0a f2 eb be f7 25 ad bd 78 7f be be
       0.22007257 -0.460831 -0.08454507 -0.37206626
000070 c1 13 7c be 68 60 4d 3e a9 e3 b2 be d5 10 34 3e
       -0.2461691 0.20056307 -0.34939316 0.17584546
000080 ef 3a e7 3e 8e 34 d3 3c b4 94 af be b2 dc 3e be
       0.4516215 0.025781896 -0.3429314 -0.18638876
000090 ec 4c f7 3d 02 4d c9 be ad 36 79 3e 01 cf e7 be
       0.120752186 -0.39316565 0.24337263 -0.4527512
0000a0 42 f2 f1 be 07 b2 f3 be 89 3d b6 bd 68 f5 a9 3e
       -0.4725514 -0.47596762 -0.08898456 0.33195043
0000b0 0d f7 ed be 33 a2 cf 3e 5a 2c 36 be 78 8f 17 3e
       -0.46477547 0.40553436 -0.17790356 0.14800823
0000c0 7c 5f d6 3b 3d db da be a3 81 d7 3e cd 93 8f 3e
       0.0065421443 -0.4274539 0.42091092 0.2804245
0000d0 da 51 06 3f f5 c8 75 3e 99 cc bb be 23 2c de 3e
       0.52468646 0.2400244 -0.36679533 0.4339305
0000e0 db 7d 7a 3a 7d e7 61 3e 62 ce ca be 6f 59 03 be
       0.0009555497 0.22060962 -0.39610583 -0.12827085
0000f0 4a a7 f9 be 2a c2 3e be 2e c7 dc 3d 19 e5 bd be
       -0.48760444 -0.18628755 0.10780178 -0.3708885
000100 4b 09 19 3e 95 d6 8a 3e dd dd 3e 3d 3c 22 a0 be
       0.14944951 0.27116838 0.046598304 -0.3127612
000110 ed 79 c2 be 2e a1 27 be 51 9b 50 3e 90 27 f1 3e
       -0.37983647 -0.16370079 0.20371749 0.47100496
000120 31 9b 8d 3e d4 11 69 bd ab 68 34 3e 29 b0 f5 be
       0.27657464 -0.056901768 0.17618053 -0.47985962
000130 c7 07 da be 56 c6 73 3e 40 44 90 be c1 15 84 3e
       -0.4258406 0.23806128 -0.2817707 0.25797847
000140 97 1c ac be 71 c5 7b be ec 93 d3 be 1e 2b 8f 3e
       -0.33615562 -0.24587037 -0.41323793 0.27962583
000150 65 f8 02 bd d1 14 c0 3e 27 5f a1 3e 21 0d 8b 3e
       -0.03197517 0.37515882 0.31517908 0.27158454
000160 bd f8 a0 3c fb 18 1d be 5f 20 e6 bd 9b d3 96 3d
       0.019649858 -0.1534156 -0.11236643 0.07364579
000170 0e 50 82 3e 7c 0f af be b2 3e d8 3e a1 0f 30 bd
       0.25451702 -0.341915 0.42235333 -0.042983655
000180 27 d7 d9 be 88 ea 8e be 90 a2 dd 3e ac da e6 3e
       -0.4254696 -0.27913308 0.43288088 0.45088708

forward_msg.l1.weight f4 [50, 100]
000000 b3 f4 b0 bd 20 68 90 3d 86 1b 84 3d 2a 3e 95 3d
       -0.08640423 0.0705111 0.06450562 0.072872475
000010 5f fd a6 3d ad 2e 75 bd e8 6c a4 3c 57 49 22 3d
       0.081537955 -0.059858967 0.020071462 0.039620724
000020 b1 22 ca bc 9b bb da 3c a4 0e 5d bc a2 be 84 3d
       -0.024674745 0.026700785 -0.01349226 0.06481673
000030 9b 5b 0b bd 86 1f 25 bd 63 76 04 3d 5d 07 c6 3c
       -0.03402291 -0.040313266 0.032339465 0.024173433
000040 d2 c4 64 bd de 40 26 3c a6 bc 4e 3d 8b a5 d1 bc
       -0.055851765 0.0101473015 0.050472878 -0.025591632
000050 65 31 bf 3c c2 ca 72 bc 08 7d 1b 3d 18 6b 87 bd
       0.023338983 -0.014818849 0.037961036 -0.066122234
000060 c1 31 5f bd 1c 83 2a bd 9b 35 b7 3d 91 48 fa bc
       -0.05449081 -0.041628942 0.08945771 -0.03055218
000070 0a 08 44 3c 76 9c 3d bd d5 ea cc 3d ac 16 a4 3d
       0.011964807 -0.04629179 0.10005728 0.08012137
000080 b2 c3 9a bd d7 6a ba bd d3 b4 ae bd 89 8f 4b bb
       -0.07556857 -0.09102409 -0.08530583 -0.0031060895
000090 f4 08 00 bd f5 88 62 bd 9f 73 16 bd f3 c4 f9 3c
       -0.03125854 -0.055306394 -0.03673136 0.03048942
0000a0 ab 61 30 bd c3 62 c1 3c 04 28 a1 bc 14 b5 60 bd
       -0.043061893 0.023606664 -0.019672401 -0.05486019
0000b0 a5 bd e4 3c cf a7 93 3d cf 6f 94 bd c9 a9 1a 3c
       0.02792246 0.07209741 -0.07247888 0.009439894
0000c0 43 c1 f1 bb e9 32 d2 3d b4 14 a9 bd 81 0b d1 bd
       -0.007377775 0.102636166 -0.08255902 -0.10207272
0000d0 ea a1 c5 3d f9 45 88 bd 2b 7f 20 3d f2 ae 57 bc
       0.09650023 -0.06653971 0.039183777 -0.013164269
0000e0 bf 5e 94 bc 8d 27 0a bd 11 ed 92 3d 2d 86 93 bb
       -0.018111585 -0.033729125 0.07174123 -0.004502079
0000f0 a7 df be bd a4 cd 7b bd 84 c2 33 bd 58 f8 7c 3d
       -0.09320002 -0.06147541 -0.043886676 0.061760277
000100 4d 94 72 bd c5 26 bc 3d 55 4b dd bc 1b ab 5d bc
       -0.059223462 0.09187082 -0.02701346 -0.013529564
000110 d7 5e ab 3d c8 c0 13 3d 21 10 b2 3d 88 a6 4d 3d
       0.08367699 0.036072522 0.086944826 0.050207645
000120 7d 42 09 bd 98 01 51 bd b2 fc c5 bb d9 33 c9 3d
       -0.033510674 -0.05102691 -0.0060420865 0.09824342
000130 6e 26 a9 bc 95 92 b3 bd 8d 59 27 3d f6 fc c2 3d
       -0.020648208 -0.08768193 0.040856887 0.09520905
000140 75 49 8e bc cd fc 98 bd 20 da bc bd 43 51 bc 3c
       -0.017369011 -0.07470093 -0.092212915 0.022987967
000150 da fd 44 bc 8a 8b 6c bd 3d 64 95 3c 0d 47 1e 3d
       -0.012023414 -0.057750262 0.018236274 0.038641978
000160 1c b2 8f 3d de 13 94 3d df 4f 89 bc 9d 9e ad bd
       0.070163935 0.07230352 -0.016761718 -0.08477519
000170 5e 76 d1 bd 84 f9 bb 3d b7 e8 26 3d 57 ad 4f 3d
       -0.10227655 0.09178451 0.040749278 0.05070242
000180 f4 9d bf bd 9f c9 c2 3d e4 b3 ca 3d 47 75 a5 3d
       -0.09356299 0.095111124 0.09897593 0.080790095
000190 ee a6 9e bd 21 0c 28 bd 10 0c 8b bd d8 f4 bb 3d
       -0.07746683 -0.041027192 -0.0678941 0.091775596
0001a0 06 c3 38 bd 20 b9 5b bd 53 f9 7c 3d cf 48 55 bd
       -0.045107864 -0.053643346 0.06176121 -0.05207139
0001b0 9a b7 51 bd 3f e5 d0 3b 52 2f 13 bd 41 7f ab bd
       -0.051200487 0.0063749845 -0.0359338 -0.08373881
0001c0 2f aa ad 3d c4 42 1b bd ad d1 26 3d 4b 05 bf 3d
       0.084797256 -0.03790547 0.040727306 0.093271814
0001d0 7d 1a 5b 3d 8a 6b 62 3c ef 96 ba 3d da 83 83 3c
       0.053492058 0.013819585 0.091108195 0.016054083
0001e0 f0 55 50 bd 8c 3c f1 3d 39 e5 cf 3c f8 76 d1 bd
       -0.050863206 0.117791265 0.025377857 -0.102277696
0001f0 27 e8 b7 bc 75 b8 8c bd 50 1f db 3d 4f 46 8d bc
       -0.022449566 -0.0687112 0.10699332 -0.01724544
000200 0c 8c c2 bd e4 f8 39 bc c2 78 b7 3d a3 f3 ef 3c
       -0.09499368 -0.011350844 0.089585796 0.02929098
000210 f4 a9 08 3d ce 7c d7 3b 03 c8 51 3d 76 6f a0 bc
       0.033365205 0.006576157 0.051216137 -0.019584399
000220 33 74 20 bd 70 be 9f bd 0f 33 c2 bd 39 56 1f 3d
       -0.039173316 -0.07799995 -0.09482395 0.038900588
000230 46 4e 81 bd 92 34 9a 3c aa 56 89 3c 62 cc 87 3c
       -0.063137576 0.018823896 0.016764957 0.01657695
000240 ed e4 95 bd 17 6e c9 3d 1e 20 85 bd 69 a8 b1 3d
       -0.07319055 0.09835451 -0.065002665 0.086747
000250 18 f1 c0 bd 0b 51 17 bd fb d7 68 3d 2f f6 12 bd
       -0.09420985 -0.036942523 0.0568466 -0.03587931
000260 97 96 b0 3d db 8d 8a bd ad a7 a9 bd 9b 97 8b bd
       0.08622473 -0.06765338 -0.08283935 -0.06816026
000270 65 27 14 3c 05 9b c9 3d e6 c3 42 bd a7 16 10 3d
       0.0090425955 0.09844021 -0.047550105 0.035177853
000280 f5 e0 f2 bc 62 b4 ed bb 38 af a1 3d 8a 54 9d bd
       -0.029648283 -0.0072541693 0.078947484 -0.0768214
000290 9f 9b 0a bc b0 12 bb 3d 75 54 96 bc f8 0f a6 3d
       -0.0084599545 0.09134424 -0.01835082 0.081085145
0002a0 5c 82 29 bd 37 ce aa 3d af b2 cf bd c7 4c 8b bc
       -0.041384086 0.083401136 -0.10141503 -0.017004384
0002b0 43 76 29 ba 3d 9b 9a 3c 76 fd 37 3d bc fe ab 3d
       -0.0006464461 0.018872852 0.044919454 0.08398196
0002c0 6e b3 28 bc da 1e 0d ba 2d 46 9a 3d 38 f6 c3 bc
       -0.010296686 -0.00053833204 0.07532916 -0.023921117
0002d0 3c c1 ba 3d 48 84 81 bd c8 30 79 bc bf 7e 3e b9
       0.09118888 -0.06324059 -0.015209384 -0.00018167029
0002e0 ed 1f 28 3d 7d 12 82 3d e0 86 83 3b 9a 34 9f bd
       0.04104607 0.063511826 0.004013881 -0.07773705
0002f0 1d 35 12 3d 81 a9 19 3d 32 5a 59 3d 88 62 98 bd
       0.035695184 0.037515167 0.053064533 -0.07440668
000300 e0 db 95 3d 4c b8 d7 3d 67 22 ea bb e7 7d be bd
       0.073173285 0.10533199 -0.0071452144 -0.09301358
000310 34 ec 9e 3d b4 80 94 bd 80 dc 4c 3c 66 30 4f 3c
       0.07759896 -0.07251111 0.012503743 0.012645816
000320 44 e7 4e bd 0e 7b 11 3d 21 54 ca bd 44 c9 cd 3c
       -0.05051352 0.035517745 -0.098793276 0.025120385
000330 50 11 8a bd dc f2 8e bc 5d f3 e6 3c 1d c2 b1 3d
       -0.06741583 -0.017449789 0.028192217 0.08679602
000340 4d 2f 3f bd 6c 12 9a 3d 01 ff be bc a1 b5 46 bd
       -0.04667597 0.07523045 -0.023314955 -0.04851306
000350 cd 5d bb bd 69 a9 ba bd 02 fe cc 3d 83 29 f2 bc
       -0.091487505 -0.09114344 0.10009386 -0.02956081
000360 90 cc 99 3b 8d 68 85 3c 83 d6 8f 3d d1 88 b2 3d
       0.004693575 0.016285205 0.07023337 0.08717502
000370 07 b9 af 3d 47 44 90 bd b8 d2 c3 bc 40 44 7c bd
       0.08580213 -0.07044273 -0.02390419 -0.061588526
000380 29 8c 37 bd f4 aa 9d 3c 47 5c c1 3d 8b a5 9a bd
       -0.0448114 0.019246556 0.09441429 -0.07551106
000390 83 11 74 3d 26 f7 59 bd f7 73 b1 bc 62 30 98 3d
       0.059587013 -0.053214215 -0.021661742 0.07431103
0003a0 7d 70 73 bc 57 4c b3 3b e5 93 47 bd 07 73 b0 3d
       -0.014858362 0.005471747 -0.048725028 0.0861569
0003b0 da 1e 1a bc 98 28 77 bd 8b aa fc 3c 06 14 b9 bd
       -0.00940677 -0.060341448 0.03084304 -0.09037022
0003c0 40 14 9f bd f6 ca 26 3c 19 66 97 3d 61 48 af bc
       -0.07767534 0.010180226 0.073925205 -0.021396818
0003d0 16 42 4a 3d 0d 1c cd 3d 3d e0 92 3d 5e ee 50 bd
       0.04937943 0.10015116 0.07171676 -0.051008575
0003e0 05 00 ee bc 0e 89 06 bd 2d 97 b6 bd e6 6d 77 bb
       -0.029052744 -0.03284555 -0.08915553 -0.0037754714
0003f0 e1 9e 95 3d 67 1e 9a 3d 4f 33 18 3c 17 90 df 3b
       0.07305694 0.0752533 0.009289577 0.006822597

forward_msg.l1.bias f4 [50]
000000 ed f2 a2 bd ec 1b ca 3d 9c 25 a4 3d e6 dc a5 bd
       -0.07956491 0.09868607 0.08014986 -0.08098774
000010 3d 9f 71 bd ae 2b 54 3d 67 f7 20 bd e8 89 80 3d
       -0.058989752 0.05179947 -0.03929844 0.062763035
000020 c8 81 60 bd bf 1f d3 bc f3 22 6e bc 78 4d d7 3d
       -0.05481127 -0.025771974 -0.0145347 0.10512823
000030 c1 d5 0b bd a2 07 ae bc d3 41 90 3d 93 51 67 bd
       -0.0341394 -0.021243874 0.07043805 -0.05647428
000040 90 7d 8d bb a0 ef 73 bd 3b 44 b4 bd 40 24 9e bc
       -0.0043179467 -0.059554696 -0.088020764 -0.019304395
000050 6c 8f a8 3c 6b d0 ae 3d a8 a3 b4 bd 0f d0 25 3a
       0.020576201 0.08535846 -0.088202775 0.00063252536
000060 d7 2d b3 3c 63 9b 1a 3d 5a b7 85 3d 8c 68 b8 bd
       0.021872444 0.037745845 0.06529112 -0.09004316
000070 12 aa 85 bc cc 20 d4 3c f4 8d 6a bd 9b 60 72 3d
       -0.016316447 0.025894545 -0.057264283 0.05917416
000080 db 91 b8 bd 6e 92 93 3d 54 d5 12 3d 16 73 b0 bc
       -0.09012195 0.072056636 0.035847977 -0.021539252
000090 77 07 ca 3c 69 b5 c3 3d af ba a4 3d 42 57 5d 3d
       0.024661763 0.095560856 0.080434196 0.054038294
0000a0 ca f5 3d bd 20 11 3b 3d 03 e2 a1 3d cd a0 bf 3c
       -0.04637698 0.04567063 0.079044364 0.023392105
0000b0 22 3c 90 3d 8b 17 45 bd c5 68 93 3d 8a 17 60 3b
       0.070427194 -0.048118155 0.071977176 0.0034193718
0000c0 87 5d a6 bd ec 6a 48 bc
       -0.08123308 -0.012232523

forward_msg.l2.weight f4 [100, 50]
000000 d7 d3 11 3e 74 8f 66 bd 77 0b cf bc d6 54 58 bd
       0.14240967 -0.05628915 -0.025274022 -0.05281528
000010 a7 75 a6 bd 6d 98 6b 3c 12 4f af 3d a0 fa a3 3c
       -0.08127909 0.014379603 0.08560003 0.020016968
000020 b4 88 f2 bb 3c a5 cc 3b 3d 2d fb bd f7 dc 26 bd
       -0.00740155 0.0062452834 -0.12264488 -0.040738072
000030 e8 b4 f9 3a 53 55 0b be dc b5 6e 3d 11 db 95 3c
       0.0019051107 -0.13606767 0.058278903 0.018292936
000040 c9 73 bd ba 86 6d 1a bc 21 6c 00 3e ef 37 ff 3d
       -0.0014454062 -0.0094255265 0.12541248 0.1246184
000050 4a 94 d2 3c b9 3d 88 3d 34 cc a2 bd b9 e4 90 3d
       0.025705475 0.06652398 -0.07949105 0.070748754
000060 d5 ad d1 bd ef 47 82 3d e3 14 c8 bd 18 49 5d 3c
       -0.10238234 0.063613765 -0.09769609 0.013506196
000070 a8 18 ee 3d 5f af b5 3d 6b ac 0e 3e ea 00 fa 3b
       0.116257966 0.0887134 0.1393296 0.0076295035
000080 c2 20 89 3d 56 ac 41 3d 96 9d 1a 3e 54 ba 65 3d
       0.06695701 0.047283493 0.15099177 0.0560859
000090 ce 2d 39 3d 05 f2 94 bd 0e 5d 85 bd 69 bd 13 bd
       0.0452097 -0.07272724 -0.065118894 -0.036069307
0000a0 e7 85 a5 3d 83 77 6f bd d5 0c 17 3d a5 2a f5 3d
       0.080821805 -0.058463585 0.036877472 0.119710244
0000b0 3a cf 0d 3e 90 d4 04 be 76 0c 20 3d cc 4a d5 3d
       0.13848582 -0.12971711 0.039074384 0.10414657
0000c0 7e 59 f8 bd 7f 7b 01 3d 32 e7 c8 bd ed 0f d1 bd
       -0.12126444 0.031611916 -0.09809722 -0.10208116
0000d0 dc 8e 79 bd bc 0c 4d bd 80 b8 74 bd 3b 2d 36 3d
       -0.060927257 -0.050060973 -0.059746265 0.04447673
0000e0 8d aa 9e 3c 7a 23 53 3d 56 f8 d9 3d 63 64 ac bd
       0.019368434 0.051547505 0.106430694 -0.08417585
0000f0 73 aa 02 be 48 4b 8d bd f6 21 9d bd 63 cd 4a bd
       -0.12760334 -0.068991244 -0.07672493 -0.04951228
000100 ba 9f 80 3d eb fd ff bd 35 ba d6 bd 47 11 3e 3d
       0.062804654 -0.12499603 -0.10484735 0.046403196
000110 25 26 b8 bd e7 40 c0 3c 90 22 b0 bd 10 18 5b 3d
       -0.089916505 0.023468448 -0.08600342 0.053489745
000120 89 93 aa 3d cd 5f 15 be 2e 79 63 3d fb 3c 5b bd
       0.08328921 -0.14587326 0.055535488 -0.053524952
000130 37 eb f1 3d ac 33 02 3e b8 4a 04 be b7 90 2b 3d
       0.11812442 0.12715024 -0.12919128 0.041886058
000140 f6 c0 5d 3d 74 c3 16 3e d5 ff b0 3d 8d 5b eb 3d
       0.0541391 0.14722997 0.08642546 0.11492071
000150 d9 54 d4 3c d8 c6 05 3d 60 0b aa bd c2 06 b5 bc
       0.025919365 0.032660335 -0.08302951 -0.022097949
000160 28 ee 04 bd b4 7b bf bd 2e 81 2a bd 6a d0 5e bd
       -0.032453686 -0.093497664 -0.0416271 -0.054397978
000170 ca a9 51 bd aa a1 2c bd 53 b8 ed bd 7a d5 24 3e
       -0.051187314 -0.042146362 -0.11607423 0.1609706
000180 9b 96 92 3d 67 d3 84 3d 23 95 0d be 3f 44 0d be
       0.07157632 0.06485634 -0.13826422 -0.13795565
000190 64 b3 ee 3d 36 fb 8c bc 96 34 04 3d 10 a8 92 3d
       0.1165531 -0.01720963 0.032276712 0.07160962
0001a0 1e d4 89 3c 35 84 d6 3a b5 77 f7 3d eb 9b fb 3d
       0.016824778 0.0016366305 0.12083379 0.12285598
0001b0 83 b0 20 bd 93 2a 14 be 50 d0 99 bd 06 e0 44 3d
       -0.039230835 -0.14469366 -0.075104356 0.048065208
0001c0 7c bb a1 3c 71 da ee 3d 6f fc 31 bd 59 bc d7 bd
       0.01974272 0.11662758 -0.04345363 -0.10533971
0001d0 b4 e0 55 3d 60 90 d9 bc 3a 7d 96 bd 8d b7 c6 3d
       0.052216247 -0.026558101 -0.07348104 0.09702978
0001e0 b0 31 48 3a 6f 3e ad bb ef 80 17 3e 5d df 1c 3e
       0.00076367985 -0.0052869837 0.14795278 0.15319581
0001f0 52 00 f1 bd e2 69 20 be 1c af ce bd 15 c6 ec bd
       -0.11767639 -0.15665391 -0.10091993 -0.11561219
000200 66 16 86 bd 17 a4 ed 3d a8 39 5e bd 33 aa db 3d
       -0.06547241 0.11603563 -0.054254204 0.10725822
000210 81 17 98 3d 4b a0 6f bd b2 d1 1b bc 65 b1 22 3d
       0.07426358 -0.058502477 -0.0095104445 0.039719958
000220 c2 87 47 3d a8 a0 e5 bd bd 7f e7 3c 1a a4 d1 3d
       0.048713453 -0.112122834 0.028259153 0.10236378
000230 45 e9 2d 3e 82 47 ee 3c dc 7a bb bd 97 e0 8d 3d
       0.16983517 0.029086832 -0.09154293 0.06927603
000240 d1 09 20 be 0a 81 c8 3d 3b 17 bf 3d 2b a6 83 3d
       -0.15628745 0.09790237 0.09330603 0.064281784
000250 58 10 33 3d f4 64 02 3e a8 c6 8d bd 0f 35 05 be
       0.04371676 0.12733823 -0.06922656 -0.13008521
000260 98 e4 ad bd 53 34 cc 3d 13 ea 98 bd 3b 0e f8 bd
       -0.084908664 0.099709176 -0.07466521 -0.12112089
000270 6c 92 af 3d 3c c2 ae bd 07 a9 16 bc a7 92 d7 bd
       0.0857285 -0.08533141 -0.009195573 -0.105260186
000280 59 fc eb 3c 57 b9 22 bd 43 3e 24 3c 99 91 ac 3d
       0.028806852 -0.039727535 0.01002461 0.08426208
000290 84 c5 d0 bd 0c 15 64 bc 90 a2 d0 bd 31 c5 32 3e
       -0.10193923 -0.013921034 -0.10187256 0.17458035
0002a0 f1 f4 83 bd da 3b 40 3d 0e 13 45 3d e3 58 19 be
       -0.06443203 0.04693208 0.048113875 -0.14975314
0002b0 ee 57 c5 bd 8e c1 30 3c d0 0d c2 bd 0e 7b 65 3d
       -0.09635912 0.0107883345 -0.09475291 0.056025557
0002c0 d5 77 bf 3d 16 e3 93 bb c0 40 3b 3c 2d 35 2b 3d
       0.09349028 -0.0045131547 0.011429012 0.04179876
0002d0 56 1c d9 3d 46 a2 f1 bc 34 78 63 bd f8 4e b5 bd
       0.10601108 -0.029496323 -0.055534557 -0.08852953
0002e0 b4 42 c6 bc 07 a8 d3 3d 3b 00 a8 bc 0e fc f2 3d
       -0.024201728 0.10334783 -0.020507922 0.11864482
0002f0 58 45 82 3d 57 67 86 bd f6 c4 c4 3d d2 d3 d2 3d
       0.063608825 -0.06562679 0.0960788 0.10294308
000300 54 e0 9a bd 82 be 10 bd 61 65 b2 bc 08 37 a7 3d
       -0.075623184 -0.035337932 -0.021776857 0.08164793
000310 40 0e e9 3d 71 db 82 bc a1 f2 09 3e 71 31 0c 3e
       0.11379671 -0.015973778 0.13471462 0.13690735
000320 56 87 01 be 03 d6 c4 3d ef 45 3f bc d2 70 dc 3d
       -0.12649283 0.09611132 -0.011674388 0.10763706
000330 e7 50 d7 3d 59 b5 13 be 76 4b 08 be c6 a2 51 bc
       0.10513478 -0.14424647 -0.13310036 -0.012795156
000340 a4 20 26 3d ad 12 28 bc e8 23 14 be ec 86 62 3d
       0.040558472 -0.010258359 -0.14466822 0.055304453
000350 7f 1f b6 bd 57 27 56 3d 77 74 b9 3d 8a 25 84 bd
       -0.08892726 0.05228361 0.09055417 -0.064524725
000360 37 03 a5 3d b2 3b 3b bb 87 0b 60 bd 64 85 22 3a
       0.08057254 -0.0028569517 -0.054698493 0.00061996863
000370 b6 e0 12 3d 2b 89 83 3d 9a 21 a8 bd 5e 15 d2 3d
       0.035858832 0.06422647 -0.08209534 0.10257982
000380 c1 d5 88 bd c2 ca bf bd 91 00 7c bd 64 23 0e be
       -0.06681395 -0.09364845 -0.061523978 -0.13880688
000390 c5 3b bf 3c 36 ee a6 3b 61 80 c1 bc d7 60 da bd
       0.02334393 0.005094315 -0.023620786 -0.10663002
0003a0 b8 93 91 3d 59 58 41 3d 0a 6d 10 bc 44 bb 02 3c
       0.07108253 0.047203396 -0.008815059 0.007979218
0003b0 42 09 4b 3d f0 d3 d6 bd 7a c2 30 bd 3e fa 85 bd
       0.049569376 -0.104896426 -0.043154217 -0.065418705
0003c0 23 a6 e8 3d 02 24 02 3d 5e 5a eb bd cc 98 c0 3d
       0.11359813 0.03177262 -0.114918455 0.09404144
0003d0 23 ac 34 3c fe 84 45 3b ba b0 70 3c 45 a2 87 bc
       0.011027369 0.0030139084 0.014690572 -0.016556868
0003e0 22 2a 04 3e af d1 48 3d 41 93 88 3c f9 e8 69 bd
       0.12906697 0.049028095 0.016671779 -0.057106946
0003f0 51 9c 09 3d 11 09 ea bd 34 e4 75 bd 2c b5 88 3d
       0.03359634 -0.114275105 -0.060032085 0.06675181

forward_msg.l2.bias f4 [100]
000000 cc e3 0c be a6 4d cc 3d 74 d8 c8 bd e9 54 bf 3d
       -0.13758773 0.09975748 -0.0980691 0.09342367
000010 6d 13 2f 3b bc 37 af bc 9d 26 e4 3d 5c 45 d1 bd
       0.002671446 -0.02138888 0.111401774 -0.102183074
000020 6d ee 8a 3d 33 c0 c8 3d 3f d4 e2 3d 93 d6 07 be
       0.06783757 0.09802284 0.11075639 -0.13265447
000030 df 1c 0d 3c 34 d7 0f bc 42 f8 d4 bd 21 b9 c0 3d
       0.00861284 -0.008779336 -0.10398914 0.094103105
000040 9e 2d d2 bc c1 eb ba 3d 30 6d a8 bd 5a 23 78 bd
       -0.025656518 0.09126998 -0.08223951 -0.06058059
000050 2d 25 34 3d 65 41 c8 3c 87 51 9e 3d 6a d4 6d 3d
       0.043980766 0.024445245 0.07730394 0.058063902
000060 fd ab f3 3d 73 0a e5 bd 4b b3 fc 3c 82 b7 d0 3d
       0.118980385 -0.11183634 0.030847212 0.10191251
000070 c3 96 6d bd 6e 5d b6 bd 54 4e 10 3e 05 9b ea bd
       -0.058005106 -0.08904539 0.1409238 -0.11455349
000080 e4 d1 d8 bd aa fa 00 be 0e b9 0f 3d 60 72 17 3d
       -0.105869085 -0.12595621 0.03508859 0.03697431
000090 58 56 02 be f9 2c c8 3d 78 f3 2a 3d 68 c3 6d 3d
       -0.1272825 0.09774203 0.041736096 0.058047682
0000a0 05 41 13 be ea 50 03 be 1f 0d fd bd 72 45 7d bd
       -0.14380272 -0.12823835 -0.12356018 -0.061833806
0000b0 75 3c ff bd 1c ad 8b 3d 25 5e e6 bc af a6 69 bd
       -0.12462703 0.06820127 -0.028121063 -0.057043727
0000c0 4d 4e f1 3d 81 56 d4 3c 07 84 c4 3c 85 6b ad bd
       0.11782513 0.025920155 0.023988737 -0.08467773
0000d0 53 7f 19 bd 94 a2 f7 bd b2 20 c1 bd a9 4a 0d 3e
       -0.03747494 -0.12091556 -0.09430064 0.13798012
0000e0 20 d3 c9 bd 32 4b 9e 3d 8a d6 d7 3d 2e 17 c5 3d
       -0.09854722 0.07729186 0.10538967 0.09623562
0000f0 e2 9e f5 3d df 2c f3 3d c6 98 98 3d 80 2b 80 bb
       0.11993195 0.11873793 0.07451014 -0.0039114356
000100 d7 b7 1f bd 09 29 14 be 9a 08 a4 3d df 93 07 bd
       -0.038993683 -0.14468779 0.08009453 -0.033100005
000110 74 1d 96 3c 87 6e ce bc d3 b5 b0 3d bb 6a f8 3a
       0.018324591 -0.025199188 0.0862843 0.0018952707
000120 ce 36 d8 3d 96 0c d0 3d d7 45 27 3d b7 f1 d7 bb
       0.10557328 0.101586506 0.04083809 -0.006590094
000130 fb 8e 8a 3d c6 c0 b5 bd 6c 2b e0 3d e1 66 f3 3d
       0.067655526 -0.08874659 0.10945782 0.11884857
000140 de 38 97 3c 6d cf 07 bc 41 43 cc 3c 99 69 04 3e
       0.018459734 -0.0082892 0.024934413 0.12930907
000150 49 a9 f8 3c 65 f3 9c bd d8 91 80 bc bc 49 14 be
       0.030354159 -0.07663611 -0.015694544 -0.14481252
000160 0f fc 0a bc 6f b8 f8 bd 79 73 22 3d 57 4b 7a 3c
       -0.008482947 -0.12144553 0.039660905 0.0152767515
000170 ea 29 08 3e bc ee 32 bd a6 52 1e bb 36 ad 7e bb
       0.13297239 -0.043684706 -0.002415815 -0.0038860566
000180 2a 1e 35 bd 83 9e 44 bd 4a 2b 6d bd c7 7c 87 bd
       -0.04421822 -0.04800273 -0.05790261 -0.06615596

backward_msg.l1.weight f4 [50, 100]
000000 44 70 d9 3b 65 7f ae 3c 75 ad 4d 3d b0 11 75 3d
       0.0066356976 0.02130098 0.05021425 0.05983132
000010 fb b0 79 3b 9e 08 3c 3d 5a e6 b3 bd 0f a3 86 3d
       0.0038099873 0.045906655 -0.087841704 0.0657407
000020 7f 9d be 3d 7e ec 4e 3d ae b7 a8 bd ea 45 35 bb
       0.09307384 0.050518505 -0.08238159 -0.002766008
000030 c2 ba d8 bd 65 af 86 bd 4f 2d ba 3d 22 d6 f7 3c
       -0.10582496 -0.065764226 0.09090673 0.030253474
000040 f3 5e bf 3d 80 91 a7 3d df ca 91 bc 4d d9 4a 3d
       0.09344282 0.08182049 -0.017796932 0.04952364
000050 29 16 ba bc b0 92 68 bd 8b 98 70 bc 14 9f b2 bd
       -0.022715645 -0.056780517 -0.014684807 -0.08721748
000060 2e b9 99 3d 57 21 c9 bd a2 1d c6 3d 4e 30 bc 39
       0.07506023 -0.09820812 0.09673621 0.00035894144
000070 be 92 e0 3a 83 aa d5 3d b3 89 80 bd bd ff 9e bc
       0.0017133576 0.10432913 -0.06276264 -0.019409055
000080 86 7e 70 3d cb 9b a4 bc 92 e6 39 3c c2 14 23 3d
       0.058714412 -0.02009382 0.011346476 0.039814718
000090 76 9c 06 3c d1 a8 a6 3d 73 27 5f bd 96 18 5b 3d
       0.008216014 0.08137668 -0.05448098 0.053490244
0000a0 40 9c c6 3a f1 26 d3 bd a0 8a f1 bc 37 9d 55 3d
       0.0015152767 -0.10310162 -0.029485047 0.052151885
0000b0 ba 1d a2 bd 53 47 a2 3d 7d 52 a1 bd 44 b5 89 3c
       -0.07915826 0.0792376 -0.078770615 0.016810067
0000c0 56 aa a6 bb 0e 09 7d bd d5 45 8c 3d 0b 9a 47 bd
       -0.0050862236 -0.061776213 0.06849257 -0.04873089
0000d0 a0 53 23 bd 87 11 71 bc 27 ff 06 be af d7 29 3d
       -0.039874673 -0.0147136515 -0.1318327 0.041465458
0000e0 8f 68 f4 bb 7b 71 a1 3d b9 ea c4 3c 02 c8 95 3d
       -0.0074587534 0.07882973 0.024037706 0.07313539
0000f0 c1 e5 6c 3d 41 9f 47 3d c5 f9 9e bd 06 91 46 3c
       0.057836298 0.04873586 -0.077624835 0.012119537
000100 f2 b8 70 bd 9f 9c 74 3d 8e bd 9a 3d dd e8 dc bc
       -0.058770128 0.059719678 0.07555686 -0.026966507
000110 48 66 a9 bd fc c9 8e bd 2f b1 77 bd 59 16 d0 3d
       -0.08271462 -0.06972119 -0.06047171 0.101605125
000120 99 be 4d 3d 10 b6 f3 bd fa ef d1 bd fb fb d7 3d
       0.050230596 -0.1189996 -0.1025085 0.10546108
000130 39 a5 91 3d 30 c6 ab bd 8d 84 67 3c de b3 4d 3d
       0.07111592 -0.08387411 0.014130724 0.050220363
000140 55 7b 8c 3d 23 af e9 bc 59 e3 6d bd 75 d9 60 bd
       0.06859461 -0.028525895 -0.058078144 -0.054894883
000150 60 9d 7e bc 67 82 b5 bd a9 11 a9 bd 98 ed b4 3d
       -0.015540451 -0.08862763 -0.082553215 0.0883438
000160 66 b3 53 3d 4e 83 46 3d 1d fc 36 bd 13 9f 33 3b
       0.05168476 0.048465066 -0.044674028 0.0027408048
000170 2b 76 f7 3d 87 cc c8 3c 4f 65 51 bc 73 1e 6a bd
       0.120830856 0.024511589 -0.0127805015 -0.057157945
000180 a9 13 f4 3d 1a e6 97 bd 46 66 3c bd b4 a2 be 3c
       0.119178124 -0.07416935 -0.045995973 0.023270942
000190 ee cf 86 bc 85 59 7d bc 75 b7 ab ba 18 0f 45 bd
       -0.01645657 -0.015463238 -0.0013100939 -0.048110098
0001a0 af 58 89 3c 26 fb 65 3d a9 e3 ec bd 84 dc d1 3c
       0.01676592 0.056147717 -0.1156686 0.025617845
0001b0 96 bb 34 3c 28 b8 84 bd 77 5c 0f 3d 07 24 57 3d
       0.011031052 -0.064804375 0.03500029 0.052524593
0001c0 92 67 9e 3c cf d2 48 bd 51 f9 2e 3d 90 72 45 3d
       0.019336496 -0.049029168 0.042718235 0.04820496
0001d0 31 99 ad 3b 46 0a 9a bc da 48 43 3c dd b3 b8 bd
       0.005297803 -0.018803727 0.011919225 -0.09018681
0001e0 bb 62 a0 3d 2e 24 b8 3c a3 ee eb bc 79 c8 2d 3c
       0.07831331 0.02247819 -0.028800314 0.010606878
0001f0 17 be 70 bd cd 8d f5 ba 72 ad 5e bd e0 52 4c 3d
       -0.058775034 -0.0018734277 -0.05436463 0.049883723
000200 46 a4 1c 3d e9 5f cc bc 3f ee 39 3d 03 68 81 3d
       0.0382426 -0.024948077 0.045393225 0.06318667
000210 bc df ca bd 0d b8 a0 bd 4f 6f 11 bc 78 8c 38 bd
       -0.09905955 -0.07847605 -0.008876636 -0.045055836
000220 95 bd 45 3d 63 87 98 3d 79 3f 8c bd e2 b9 f0 3c
       0.048276503 0.07447698 -0.06848044 0.02938551
000230 83 ac 9b bb e7 c7 a6 3d a0 2e db bd bd 2e 42 3c
       -0.0047507896 0.08143597 -0.107022524 0.011851964
000240 4d 1f b3 bd ef 2e cf bd ca 50 c0 3d 75 13 6c 3d
       -0.087462045 -0.10116374 0.09390409 0.057635743
000250 ab f7 02 be dc 76 20 3d 0f 82 83 bd 80 67 b1 3d
       -0.1278979 0.039175853 -0.06421291 0.08662319
000260 81 2a 0b 3c 77 fd ed bc a6 32 52 3c d6 28 39 bd
       0.00849402 -0.029051526 0.012829458 -0.04520496
000270 0f a8 bb 39 d1 be 29 bd d0 aa 65 3d 67 ad 8b bd
       0.00035792633 -0.041441742 0.056071103 -0.06820183
000280 5a 41 4b 3c 05 72 55 bd bd 71 28 bd 6d bb cc 3c
       0.012405718 -0.05211069 -0.041124094 0.024991715
000290 d6 79 fc bb b8 2d df bd ed e3 08 3d 87 a2 0d 3d
       -0.0077049537 -0.10897392 0.033420492 0.034578826
0002a0 e0 aa 0f bd 15 ba ee 3c 49 11 80 bd 2a aa a7 bd
       -0.03507507 0.029141465 -0.06253297 -0.08186753
0002b0 ab 4c ee bc cd 0d a2 3d 80 da 1d 3c 84 19 8f bd
       -0.029089293 0.079127885 0.009634614 -0.069872886
0002c0 5a e8 9f 3d fd 2c de bc 61 c0 be bd 25 21 0d 3d
       0.078079894 -0.027121061 -0.09314037 0.034455437
0002d0 80 f2 91 bd e8 03 72 3d 82 74 eb b9 84 38 ec 3c
       -0.07126331 0.059085757 -0.00044909498 0.028835543
0002e0 4a 4d db bd a0 4c e6 3c f2 3e ec bc c7 82 57 3a
       -0.10708101 0.02811271 -0.028838608 0.00082210865
0002f0 e8 d8 41 3d 7c 04 b7 bd 78 ca a5 bd 95 2a de bd
       0.047326 -0.08936402 -0.080952585 -0.10847966
000300 50 dc 30 bd 3a f0 5c 3d 3a 75 5c 3d 5a e2 c4 3c
       -0.043178856 0.053940035 0.053822733 0.024033714
000310 22 b9 26 bd 4f 7d 6f bb 1e 58 87 3c 7a 67 3a bd
       -0.0407039 -0.0036543196 0.01652151 -0.04550884
000320 bf a5 b2 bd 71 67 9f bc 00 99 93 bc 71 24 6d 3d
       -0.0872302 -0.019458504 -0.018017292 0.05789608
000330 29 61 b2 3c ad 85 9f 3c e7 14 b4 bb 4b cd bc bd
       0.021774845 0.019472921 -0.005495656 -0.09218844
000340 0e 62 72 bd 87 5e e8 bd 31 6a cd bc 60 a3 8d bd
       -0.059175543 -0.11346155 -0.02507505 -0.06915927
000350 a1 3f 47 3c 3b a0 92 bd 2f eb d3 3c b5 f0 a9 bd
       0.012161166 -0.07159468 0.02586898 -0.08297864
000360 35 95 6a bd e1 c3 6f 3d 11 2e a9 3d b9 4a e8 3b
       -0.0572712 0.058536414 0.082607396 0.0070889858
000370 7f 3d 1c bd 5b 55 9c bd 5f 7b 97 3d fb 3f 5f 3c
       -0.038144585 -0.07633468 0.07396578 0.013626094
000380 8d 4e a5 bc 5f db e7 3b 6e a2 89 bc ae d2 3d 3d
       -0.020179057 0.0070757116 -0.016801085 0.046343498
000390 10 00 7d bd 4e 5e 05 bc a2 65 8c 3d d6 3a 44 bc
       -0.061767638 -0.00814016 0.068553224 -0.011976918
0003a0 48 41 91 3d 1e 89 97 3c b5 95 bc bd c2 b7 f5 3c
       0.070925295 0.018498 -0.09208242 0.02999485
0003b0 3e 76 e1 bb 79 fe ab bd b9 85 31 bd a4 30 a6 3d
       -0.0068805506 -0.08398146 -0.04334042 0.08114746
0003c0 af 67 60 3d f7 5e 02 3e 61 06 bf 3d 0a 63 7a 3b
       0.05478638 0.12731539 0.093273886 0.0038206005
0003d0 1f cd d1 bc 13 78 30 3d 80 2a 82 bd 7f 9f d4 3d
       -0.025610505 0.04308326 -0.063557625 0.10381984
0003e0 c9 15 bd 3d f5 ea a4 3d 00 09 72 3d 5d 47 b0 bc
       0.09232671 0.08052627 0.059090614 -0.021518404
0003f0 34 64 0d bd d1 62 3b bd 3b 25 94 bd 3b 89 c7 3d
       -0.03451939 -0.045748536 -0.07233664 0.097429715

backward_msg.l1.bias f4 [50]
000000 8e cc 40 bd 49 9c a5 bc 24 cd 04 bc b5 08 97 bd
       -0.04707008 -0.020216124 -0.00810555 -0.073747076
000010 bf c4 51 3d 93 63 67 bd 14 30 67 3d 76 7f 3e 3d
       0.051213022 -0.056491446 0.056442335 0.046508275
000020 06 c7 04 3d 27 0d 46 bb 49 71 96 bd 07 2d a8 3d
       0.032416366 -0.0030220242 -0.07345826 0.08211713
000030 42 72 41 bd 5c 42 b5 3d 2c 31 72 bc 3e 69 a7 3d
       -0.047228105 0.08850548 -0.014782231 0.0817437
000040 d6 53 10 bc 91 36 c3 bd 34 a4 c5 3d 2a 69 16 bc
       -0.008809051 -0.09531892 0.0965046 -0.0091803465
000050 68 77 36 3d ae d2 90 bd a0 1d a1 3d 17 58 64 3d
       0.04454747 -0.07071434 0.07866979 0.05574807
000060 c5 bb 37 3d 93 b8 b6 bd 51 23 40 bd 07 db 3f 3c
       0.044856805 -0.089219235 -0.04690868 0.011709935
000070 6f 22 7e bd f6 82 02 bd a9 f3 d9 bb 68 97 ad 3c
       -0.062044557 -0.031863175 -0.006651361 0.02119036
000080 ad 1f 99 3d 83 61 16 bd c9 06 c0 bd f6 9b d6 3d
       0.07476745 -0.03671409 -0.09376294 0.10478966
000090 8a c1 68 3d 24 26 15 3d d2 a3 40 bc 56 24 7d bd
       0.0568252 0.036413327 -0.011757808 -0.06180223
0000a0 0d 39 ed bb 47 86 aa 3d 2e 8b ae bd df 27 75 3d
       -0.007239467 0.083263926 -0.0852264 0.059852477
0000b0 f5 c1 21 bd b0 4d 9a 3c 6d 64 92 3d 14 1e 55 3c
       -0.039491612 0.018835872 0.07148061 0.013007659
0000c0 eb 52 62 38 21 50 0d 3d
       5.3959822e-05 0.034500245

backward_msg.l2.weight f4 [100, 50]
000000 dc a9 5d bd c1 80 ee 3c ce 2f e0 3d 17 b3 c6 3c
       -0.05411707 0.029114129 0.10946618 0.024255319
000010 b6 f5 e7 bd c5 b8 11 be fb ac 65 3d e6 ab 1b be
       -0.113261625 -0.1423064 0.05607317 -0.15202293
000020 e1 5c c9 3d 74 fc fb bd 09 13 f0 bd 3b ad d7 3d
       0.09832168 -0.12304011 -0.11722381 0.10531088
000030 c2 c4 01 3c 50 77 de bd 46 81 d3 3d 15 da 96 bd
       0.007920446 -0.10862601 0.10327391 -0.073658146
000040 c8 78 19 3d a9 29 24 bd 47 9e 4d bc 8a 4f d1 3d
       0.0374687 -0.040078793 -0.012549943 0.10220249
000050 9d 61 c1 3d c1 95 ba bd 60 fa 3b 3c e3 ac 6c 3d
       0.094424464 -0.091105945 0.011473268 0.057782065
000060 02 d1 d1 3c c7 d0 f7 bd f0 07 0f 3e 7b 9c 32 3d
       0.025612358 -0.12100368 0.13967872 0.043606263
000070 17 72 fd bd 74 f1 99 3d 2f 51 b5 bc 14 e8 0a be
       -0.123752765 0.07516757 -0.022133438 -0.13565093
000080 83 34 48 3d 58 b5 06 be 4c 54 a5 bd 20 41 b3 bd
       0.048878204 -0.13155115 -0.08072719 -0.08752656
000090 60 5d d4 bc da a2 c5 bb 24 69 82 3c 5f 92 3e 3d
       -0.02592343 -0.0060313763 0.015919276 0.04652631
0000a0 89 f1 48 3d 47 59 9c 3d 09 23 95 bd 14 d3 13 3e
       0.04905847 0.07634216 -0.07282073 0.14435989
0000b0 b0 a9 37 bc ff d2 1f be 0a 6b c0 bd a5 bb b2 ba
       -0.01120989 -0.15607832 -0.09395416 -0.0013636245
0000c0 6a 2c 96 bc 1d 79 03 3e f1 0f 78 3d 99 c7 9f 3d
       -0.018331725 0.1283917 0.060562078 0.07801742
0000d0 32 a8 d0 3c 2c cf b5 3b e0 55 84 bd a0 fd 22 be
       0.025470827 0.0055483785 -0.06461692 -0.15917063
0000e0 f2 35 fb 3c 35 66 03 be 06 4e b5 3b 82 0a 89 3c
       0.030665372 -0.12831958 0.0055329828 0.016728643
0000f0 3c f7 db 3d cd d6 29 be 90 5d 8d bd 0f b1 f8 3d
       0.107405156 -0.16585846 -0.06902611 0.12143146
000100 61 6b d3 bd de fd ce 3c 35 e4 1e be 70 a8 0c bd
       -0.10323215 0.025267538 -0.15516742 -0.034340322
000110 1e 63 4a bd f5 11 88 bc 63 1e df bd 40 0f f4 3d
       -0.04941093 -0.016610125 -0.10894468 0.11916971
000120 bd bc 42 3d 9e 4c 9b bd 3e 4f ce bd 27 26 2f bd
       0.047543276 -0.07582973 -0.10073708 -0.042760994
000130 0b 94 b5 3d 3d 19 da bd 18 e7 83 bd 65 f7 0e be
       0.088661276 -0.10649345 -0.06440562 -0.13961561
000140 ee 22 22 be d6 09 cf 3d ee 7e 05 bd 84 57 d4 3d
       -0.15833637 0.10109298 -0.032591753 0.10368255
000150 93 1d 67 3d 66 f1 c1 3c d7 a2 fb bd c1 ca 7f bc
       0.05642469 0.023674678 -0.122869186 -0.015612305
000160 b2 9c f1 3d bd c5 1c 3d 8a 6a f9 bc 01 ba de 3d
       0.117974654 0.038274515 -0.03044631 0.10875321
000170 7f 9e 38 3d a1 e8 c7 bd 82 ac 28 3c 9c 68 60 bd
       0.04507303 -0.09761167 0.010295035 -0.054787263
000180 53 30 00 3c ff f3 25 3d 86 40 03 3e d5 0a e2 bb
       0.007824021 0.040515896 0.12817582 -0.006898264
000190 7c c7 56 3c bd 0f 41 3d 35 10 be bd 7d e9 46 3e
       0.013109084 0.04713415 -0.09280435 0.19425006
0001a0 01 ae d6 3d ed 70 93 bd 83 ef 47 bc b2 58 0b 3d
       0.10482407 -0.07199273 -0.0122031 0.034020133
0001b0 f1 77 dc 3c 6d c8 28 bd 52 be 51 bd 63 99 0e 3e
       0.026912661 -0.041206766 -0.051206894 0.139257
0001c0 cb 90 ba 3d f3 a7 ca 3d 95 28 12 be f8 43 d9 bc
       0.09109648 0.09895315 -0.14273293 -0.026521668
0001d0 70 c8 9d bc 1a 4f 11 be 6d 5a 28 3e 26 99 be 3d
       -0.019260615 -0.14190331 0.16440745 0.093065545
0001e0 c1 be e8 bd 9e 20 9b bd c4 ca c1 3d 0f 03 f7 3d
       -0.113645084 -0.075745806 0.094625026 0.1206113
0001f0 a8 ef c1 3d 35 94 b6 bc 07 77 89 bc 97 3a e0 3b
       0.09469539 -0.022287467 -0.01678039 0.006842922
000200 7b cd d8 bd f2 43 11 3e d9 36 4f 3d 1d 6f 5a bd
       -0.10586067 0.14186075 0.050589416 -0.053328622
000210 a6 bf 23 3d 60 4f ab 3d fd 8a 1b 3d 20 e9 4d 3d
       0.039977692 0.08364749 0.037974346 0.050271153
000220 59 66 4a bc 5e b9 96 3d cd 4f 7c bc 4b 14 06 be
       -0.012353503 0.07359575 -0.015399885 -0.13093679
000230 54 3c ce 3d fa 94 5d 3c d9 e6 f1 bc 7d 95 88 3d
       0.100701004 0.013524288 -0.029529022 0.066691376
000240 d0 17 ad 3d 7c 2b 43 3d 0a e3 1a bd ee 2a 14 3e
       0.084518075 0.04764889 -0.037814178 0.14469501
000250 4d a8 8b 3d 4c 80 18 3e 16 2f e8 3c 29 9e d0 3d
       0.0681921 0.14892691 0.028342765 0.10186417
000260 8d d2 f6 3c 9b 8b f6 bc e5 63 da 3d 4e 6d 8d bc
       0.030129695 -0.030095866 0.106635846 -0.017264035
000270 1e a1 54 3d 68 f2 01 3e 16 fb a0 bd 20 de c2 bd
       0.051911466 0.12690127 -0.07860391 -0.09515023
000280 75 cd 13 3e 16 e4 36 3d ea 33 10 3d 79 f9 0f 3d
       0.14433844 0.044651113 0.03520576 0.035150025
000290 c9 a0 b2 bd 79 20 46 bc 31 85 cd bc fb 41 25 3e
       -0.087220736 -0.012092703 -0.025087925 0.16138451
0002a0 ac 90 2b 3d 05 06 01 bd dd 82 a7 bd 42 30 83 3d
       0.041886017 -0.03149988 -0.08179257 0.06405689
0002b0 12 2f 53 bd 7f 8d 22 3c fe 11 0b 3e 54 9a 36 3d
       -0.05155856 0.009921431 0.13581082 0.044580773
0002c0 fa ff e6 bb 0c 54 0e 3e b9 2a f6 3d cf 06 9f 3b
       -0.0070495578 0.13899249 0.120198674 0.0048531066
0002d0 79 2b 50 3d 42 19 06 be d9 2c cb 3d e7 ef 0c be
       0.05082271 -0.13095573 0.099206634 -0.1376339
0002e0 73 5c c5 3d 0e 27 88 bd 3e e6 05 3e 2c aa 1b bd
       0.09636774 -0.06648074 0.13076112 -0.038004085
0002f0 60 3a c5 bd ab 5d 84 bd 6c 36 16 be 11 4b b6 bd
       -0.09630275 -0.06463178 -0.14669198 -0.089010365
000300 a8 0a c1 bd b6 ad 1c bd ca 2e 94 bd f4 84 b2 3d
       -0.09425861 -0.0382516 -0.07235487 0.08716765
000310 7c fc 1b bd 94 63 6e bd 6f 70 03 3d 17 9a 34 3d
       -0.038082585 -0.058200434 0.032089647 0.044092264
000320 90 99 b0 bd 66 e0 03 be 7b db 01 3e bd 6f df 3b
       -0.0862304 -0.1287857 0.12681381 0.00681874
000330 d2 f0 81 3d 3e 9e dc bd 6c fb 0a bd 0c de db bd
       0.06344761 -0.1077237 -0.03393118 -0.107357115
000340 d1 de 6c 3d d0 e4 6d 3d 27 a6 a3 3d cb 9f 81 3d
       0.05782968 0.05807954 0.079906754 0.06329306
000350 d8 2f 19 bd cc 9d 8e 3d 21 6f dc 3d 82 b0 23 bd
       -0.037399143 0.06963691 0.10763384 -0.039963253
000360 09 5b c2 bd 2f e3 86 bd ad a8 12 3e 4d 92 c5 3d
       -0.0949002 -0.065863006 0.14322157 0.09647045
000370 fa 06 79 bd ce 87 9c bc 19 2a 82 3d 1f 37 3b bd
       -0.06079767 -0.019107725 0.06355686 -0.045706864
000380 0a b5 2e bc 67 94 a6 3d e3 19 f3 ba 0c d7 69 3c
       -0.01066328 0.08133774 -0.0018547144 0.014272463
000390 5f e0 83 3d 78 45 4f 3d b7 bb f5 bd b9 fa 0f be
       0.0643928 0.05060336 -0.119986944 -0.14060487
0003a0 f8 a0 01 be 6a f5 c1 bd 7f c2 be ba 8d f4 ca 3d
       -0.12659061 -0.09470637 -0.0014553814 0.099099256
0003b0 32 63 85 3d 4c 43 ba 3d 5c 89 67 3d 3a a6 29 bc
       0.06513061 0.09094867 0.05652748 -0.010354573
0003c0 9b 8a 8b bd 8b d7 e8 3b bc fc 0c 3e 20 41 a5 bd
       -0.06813546 0.007105773 0.13768286 -0.08069062
0003d0 e7 0b 15 be 47 18 de bc d0 60 0f 3e b6 08 c9 3d
       -0.14555322 -0.027111186 0.14001775 0.098161146
0003e0 ec e2 79 bd 27 f5 73 3d 79 da 61 ba 23 01 d4 3d
       -0.061007425 0.059559967 -0.0008615624 0.10351779
0003f0 ba ba b4 bb 17 1a c1 bd f7 5c 00 3e 88 c2 ba bd
       -0.0055154236 -0.09428804 0.12535463 -0.09119135

backward_msg.l2.bias f4 [100]
000000 71 3c e8 3c 05 a3 b6 bd 90 ba a5 bd 85 57 e4 bc
       0.028349133 -0.08917812 -0.080922246 -0.027873764
000010 12 ec 48 bd 0c ea f1 3c bf 7c a5 bc 91 9d 6f 3d
       -0.04905326 0.029530548 -0.020201085 0.058499876
000020 9f 8f 65 bc af e7 02 bd 6f b1 aa 3c 58 a1 fc 3d
       -0.014011293 -0.031959232 0.02083656 0.123354614
000030 72 22 d0 bd 22 da 7c 3d be 02 f9 bd 8a 19 ec 3d
       -0.1016282 0.061731465 -0.12158726 0.11528309
000040 0d f1 47 3d d6 96 06 be d3 a3 00 3e ca 1f b2 3d
       0.04881387 -0.13143477 0.12562494 0.086974695
000050 2e a9 fb 3d b2 af 11 3c 55 68 03 be e4 c1 01 3d
       0.12288128 0.008891987 -0.12832768 0.03167905
000060 ad 04 71 3d bc fb 8b 3d 91 f0 c9 3d da f5 28 bd
       0.05884235 0.06835124 0.098603375 -0.041250087
000070 78 1a 54 bd 1f f8 6b bc 2c b3 15 be ea fa 00 3e
       -0.051783055 -0.014402418 -0.1461913 0.12595716
000080 3b f5 06 3e cd 80 a9 3c 51 54 0d 3c a2 58 b3 bd
       0.13179485 0.0206913 0.00862606 -0.0875714
000090 06 3a b7 bd 12 74 b6 3d 34 38 88 3d 7c 71 05 3b
       -0.08946614 0.089088574 0.06651345 0.0020361831
0000a0 28 8c 21 3d 14 e5 94 bc e3 a7 97 3d 39 21 1d be
       0.039440304 -0.01817564 0.07405069 -0.15344705
0000b0 4f 7d 02 be f0 c9 47 bd 8a b8 be 3c b9 22 0b 3e
       -0.12743114 -0.048776567 0.023281354 0.13587464
0000c0 85 de 98 bd 38 8e b7 bd fb 72 96 bd 36 f6 ea 3b
       -0.07464317 -0.08962673 -0.073461495 0.007170464
0000d0 45 28 02 3c 91 65 bf bd ee 1f 0a bd 42 24 c6 bc
       0.007944171 -0.09345544 -0.033721857 -0.024187211
0000e0 a4 3f cf bd 45 ba 5b bd 57 fc 07 be cf cc 0e be
       -0.1011956 -0.053644437 -0.13279854 -0.13945316
0000f0 91 e6 d6 3d 7d 76 9a 3d cf c2 e4 3d 07 3e 21 3c
       0.10493196 0.07542131 0.11169969 0.009841449
000100 37 eb 07 be 36 d8 f1 3d 3a 79 d2 3d 10 ec 03 be
       -0.13273321 0.11808817 0.102770284 -0.1288302
000110 d9 87 7a bd b0 d3 22 bd e2 3a d4 bc d4 47 93 3d
       -0.06116471 -0.039752662 -0.025906984 0.071914345
000120 7b 80 64 bd f5 b9 4f bc 72 5c ad 3d 1d 42 7f 3d
       -0.05578659 -0.012678613 0.08464898 0.06231891
000130 fb 24 29 bd 80 a5 4a 3d b5 77 d3 3d 01 81 7b bd
       -0.041295033 0.04947424 0.10325567 -0.061402325
000140 de 21 84 bc 51 66 15 be c3 e7 b2 3d cb 43 86 3d
       -0.01612943 -0.14589812 0.08735611 0.06555899
000150 04 bb f6 3d 3b a7 11 3e d7 3b 8a 3d 91 7f 0d 3e
       0.12047389 0.1422395 0.06749695 0.13818194
000160 06 d8 db 3d 97 12 e7 bd 0a e8 d4 bc fd 7f 09 be
       0.107345626 -0.112828426 -0.025989551 -0.1342773
000170 71 b2 8b 3d 77 6f 9c 3d b3 05 5b bd 58 ff 8d bd
       0.06821144 0.07638448 -0.053472232 -0.069334686
000180 47 c4 03 3e b5 d3 1a bb ed 65 af bd f1 94 ea 3c
       0.12867843 -0.0023624722 -0.08564363 0.028635474
